checkpoints/transformer_cnn/epoch_199_custom.pth (torch, 135765 bytes, 48 tensors)

sam.image_encoder.temporal_transformer.layers.0.0.norm.weight f4 [12]
00000000: 8c0c 3737 f057 1f37 1720 5537 8dd7 0cb7
00000010: d70d 52b7 4924 2037 6f97 6937 16ca 0cb7
00000020: 66d7 4bb7 73ed 19b7 fa04 66b7 dcdf 0cb7
1.0910571e-05 9.497613e-06 1.2703261e-05 -8.394837e-06 -1.2520198e-05 9.5451915e-06 1.3923141e-05 -8.391702e-06
-1.2149894e-05 -9.174796e-06 -1.3710227e-05 -8.396772e-06

sam.image_encoder.temporal_transformer.layers.0.0.norm.bias f4 [12]
00000000: 6302 95b9 e0cc 97b9 11de 8739 447b 91b9
00000010: 8c6e 9f39 574f 98b9 2e7f 9239 d039 91b9
00000020: 02ab a939 4966 9239 a30b 93b9 deb0 91b9
-0.00028421273 -0.00028953608 0.0002591466 -0.00027748395 0.00030409207 -0.00029050812 0.00027942046 -0.0002769963
0.00032361603 0.00027923498 -0.00028046695 -0.00027788331

sam.image_encoder.temporal_transformer.layers.0.0.fn.to_qkv.weight f4 [384, 12]
00000000: 2bfb 99b6 08b8 d7b6 427d 0c37 90ed 53b7
00000010: e3c9 0937 f5b3 d4b6 9060 1337 1b3a 54b7
00000020: ec92 0537 df36 d736 8ce1 0cb7 c6b1 53b7
00000030: 9e45 9436 edc1 cf36 1419 07b7 1075 4b37
00000040: 8431 08b7 7645 cd36 4bc7 0bb7 63cb 4b37
00000050: dc7b 04b7 7ff5 c8b6 16d0 0c37 ff31 4b37
00000060: 4648 8c36 eb41 cc36 0fd9 05b7 392c 4737
00000070: c22b 05b7 ed2c ca36 35af 08b7 6885 4737
00000080: 2ab6 01b7 bfae c2b6 3bae 0d37 55e6 4637
00000090: 0768 9b36 c276 d736 2227 0cb7 014d 5337
000000a0: f47c 0ab7 826f d436 23e6 12b7 259a 5337
000000b0: 2c53 06b7 2f47 d6b6 86e3 0c37 0b11 5337
000000c0: 1ee9 70b6 e58f c3b6 e8ea 0837 105f 44b7
000000d0: 9dac fa36 f0bb c2b6 794a 0237 1dbb 44b7
000000e0: 32c8 f236 6e3e b736 424a 12b7 7216 44b7
000000f0: 7410 9cb6 79ba d4b6 2017 0a37 1e75 50b7
00000100: 3f3c 0b37 2ada d1b6 7cda 0f37 56c6 50b7
00000110: 0330 0737 5bfd d036 aaca 0cb7 8c35 50b7
00000120: 0cba 9bb6 2e19 d7b6 38c3 0b37 1ecf 52b7
00000130: 03a1 0a37 1112 d4b6 6a9f 1237 571d 53b7
00000140: 8a90 0637 e689 d536 b3cf 0cb7 e292 52b7
00000150: 737a 9bb6 5392 d7b6 e53f 0c37 0d60 53b7
00000160: 3c85 0a37 b88a d4b6 18e3 1237 dcac 53b7
00000170: 1152 0637 af68 d636 67ed 0cb7 8224 53b7
00000180: 8c07 9cb6 50b3 d2b6 eb3d 0f37 172e 52b7
00000190: 359f 0337 bcc8 cfb6 3f80 1037 2e8c 52b7
000001a0: 444a 0337 cf95 d036 4342 0fb7 b4e6 51b7
000001b0: 9811 91b6 c6f9 cdb6 613d 0637 7c1a 4ab7
000001c0: b59e 0637 869c cbb6 d0ea 0a37 4470 4ab7
000001d0: 0431 0337 1013 c636 b2ee 0cb7 5ad6 49b7
000001e0: b2ca 96b6 d5fa cdb6 9f47 0e37 bf1f 50b7
000001f0: 8c41 fe36 7e59 cbb6 a60e 0f37 2f7c 50b7
00000200: cb3d ff36 827a cd36 b623 0eb7 25d9 4fb7
00000210: b17f 9836 21bc d736 d1bc 0cb7 9f79 5437
00000220: 851d 09b7 bdc0 d436 a18b 13b7 4bc6 5437
00000230: 5acf 04b7 90d0 d7b6 67dd 0c37 663e 5437
00000240: 03cb 9c36 22b6 d636 f588 0bb7 5553 5237
00000250: 4543 0bb7 32b5 d336 5dca 11b7 20a3 5237
00000260: 5e1d 07b7 b179 d4b6 4ce6 0c37 8d16 5237
00000270: ca06 96b6 ebe0 d0b6 b0b0 0737 8a2b 4cb7
00000280: 441d 0937 f153 ceb6 2938 0c37 8b81 4cb7
00000290: b536 0537 8dbc ca36 45cd 0cb7 cee8 4bb7
000002a0: 2812 8336 f3b1 c836 eaef 05b7 3fb9 4337
000002b0: a6c3 01b7 a71b c736 3859 06b7 5b14 4437
000002c0: 931c fdb6 0cbe bbb6 bca9 0f37 f86f 4337
000002d0: 400d 96b6 b161 d7b6 59d5 0c37 ed0f 55b7
000002e0: 93f5 0737 ea71 d4b6 abc5 1337 d85b 55b7
000002f0: a9a6 0337 6b42 d836 ecbd 0cb7 a5d3 54b7
00000300: 4874 9c36 d615 d736 1cd3 0bb7 d6ba 5237
00000310: a40a 0bb7 6811 d436 073e 12b7 b308 5337
00000320: 99e1 06b7 2c41 d5b6 53e9 0c37 4f7e 5237
00000330: fcd4 9736 20aa d136 c71a 08b7 cbac 4d37
00000340: e889 09b7 6f03 cf36 8281 0db7 1e01 4e37
00000350: 07c3 05b7 6613 ccb6 51b2 0c37 d86b 4d37
00000360: cadb 9c36 2e57 d536 f295 0ab7 7df2 5037
00000370: 5f99 0bb7 a16d d236 5b31 10b7 8743 5137
00000380: 2371 07b7 12e9 d1b6 82e0 0c37 5ab2 5037
00000390: db1b 9cb6 da07 d7b6 98bb 0b37 70ad 52b7
000003a0: 50d9 0a37 f302 d4b6 3561 1237 77fb 52b7
000003b0: b8bf 0637 2b45 d536 ccdb 0cb7 dc70 52b7
000003c0: 0776 9bb6 8262 d7b6 8014 0c37 cc35 53b7
000003d0: 5681 0a37 ad5b d4b6 4ad8 1237 f082 53b7
000003e0: b75b 0637 591f d636 76e0 0cb7 41f9 52b7
000003f0: 5aab a236 2d56 d136 e386 0db7 0990 4f37
-4.588995e-06 -6.4289234e-06 8.373814e-06 -1.2631892e-05 8.212842e-06 -6.339042e-06 8.7843655e-06 -1.2649713e-05
7.961626e-06 6.413887e-06 -8.3971645e-06 -1.2617971e-05 4.418848e-06 6.1916567e-06 -8.052466e-06 1.2126999e-05
-8.11776e-06 6.1175624e-06 -8.331447e-06 1.2147098e-05 -7.896651e-06 -5.989044e-06 8.393099e-06 1.21113835e-05
4.180739e-06 6.0873476e-06 -7.977956e-06 1.1871621e-05 -7.937606e-06 6.025299e-06 -8.147025e-06 1.1892385e-05
-7.731413e-06 -5.8019937e-06 8.444821e-06 1.1855348e-05 4.6314703e-06 6.4213245e-06 -8.353762e-06 1.2594509e-05
-8.254534e-06 6.3310736e-06 -8.755861e-06 1.261247e-05 -8.006387e-06 -6.385984e-06 8.397625e-06 1.2580548e-05
-3.589848e-06 -5.8282044e-06 8.160925e-06 -1.1704644e-05 7.4706754e-06 -5.8035293e-06 7.765943e-06 -1.1726076e-05
7.235468e-06 5.4610928e-06 -8.719568e-06 -1.1687736e-05 -4.6510777e-06 -6.3398006e-06 8.230825e-06 -1.2425035e-05
8.299073e-06 -6.254083e-06 8.574334e-06 -1.2443945e-05 8.057806e-06 6.2283775e-06 -8.391837e-06 -1.24102335e-05
-4.6410187e-06 -6.4104306e-06 8.3304985e-06 -1.2565199e-05 8.262929e-06 -6.3201956e-06 8.739395e-06 -1.2583411e-05
8.0206755e-06 6.363948e-06 -8.393009e-06 -1.2551174e-05 -4.633615e-06 -6.4245337e-06 8.359527e-06 -1.2598944e-05
8.256462e-06 -6.3342413e-06 8.7551525e-06 -1.2616827e-05 8.00613e-06 6.3898838e-06 -8.399925e-06 -1.258508e-05
-4.650041e-06 -6.2793624e-06 8.537881e-06 -1.25277065e-05 7.845277e-06 -6.1924493e-06 8.6129285e-06 -1.25496135e-05
7.8255e-06 6.216323e-06 -8.538892e-06 -1.25110855e-05 -4.323385e-06 -6.1385535e-06 8.001313e-06 -1.2046305e-05
8.023974e-06 -6.068093e-06 8.2801125e-06 -1.2066277e-05 7.819621e-06 5.903079e-06 -8.400226e-06 -1.2030441e-05
-4.493945e-06 -6.138677e-06 8.480535e-06 -1.2405158e-05 7.5774205e-06 -6.0602897e-06 8.526875e-06 -1.242668e-05
7.606786e-06 6.123738e-06 -8.472174e-06 -1.2388719e-05 4.5448182e-06 6.4294004e-06 -8.3886125e-06 1.2664502e-05
-8.172709e-06 6.34053e-06 -8.794393e-06 1.2682353e-05 -7.916091e-06 -6.431779e-06 8.3961995e-06 1.2650713e-05
4.672796e-06 6.3989e-06 -8.316933e-06 1.2536378e-05 -8.300708e-06 6.309384e-06 -8.68979e-06 1.2554956e-05
-8.053465e-06 -6.332259e-06 8.39827e-06 1.2522226e-05 -4.4711387e-06 -6.225067e-06 8.087765e-06 -1.2169485e-05
8.17265e-06 -6.1490505e-06 8.357726e-06 -1.2189509e-05 7.940155e-06 6.0420193e-06 -8.392443e-06 -1.2153947e-05
3.906218e-06 5.9811805e-06 -7.983277e-06 1.1666037e-05 -7.734552e-06 5.9338813e-06 -8.007795e-06 1.168725e-05
-7.543314e-06 -5.5951587e-06 8.562984e-06 1.16489755e-05 -4.471891e-06 -6.418872e-06 8.394324e-06 -1.2699497e-05
8.103804e-06 -6.3313537e-06 8.807906e-06 -1.2717173e-05 7.847012e-06 6.4450337e-06 -8.38887e-06 -1.2685462e-05
4.662699e-06 6.4100414e-06 -8.334198e-06 1.25604765e-05 -8.287523e-06 6.3201187e-06 -8.71672e-06 1.25786055e-05
-8.039548e-06 -6.3554817e-06 8.398975e-06 1.2546384e-05 4.5249453e-06 6.2484905e-06 -8.112466e-06 1.2259184e-05
-8.197945e-06 6.1694805e-06 -8.434408e-06 1.2278817e-05 -7.972826e-06 -6.081932e-06 8.386168e-06 1.22440615e-05
4.674749e-06 6.3580437e-06 -8.260353e-06 1.2454225e-05 -8.320755e-06 6.27125e-06 -8.59456e-06 1.2473093e-05
-8.072969e-06 -6.2558183e-06 8.396923e-06 1.2439292e-05 -4.652405e-06 -6.4084134e-06 8.328723e-06 -1.2557357e-05
8.276038e-06 -6.3184357e-06 8.724911e-06 -1.2575524e-05 8.03166e-06 6.355947e-06 -8.395826e-06 -1.25432525e-05
-4.6331e-06 -6.418967e-06 8.349423e-06 -1.2589106e-05 8.255554e-06 -6.328765e-06 8.752637e-06 -1.2607066e-05
8.008376e-06 6.3813463e-06 -8.396912e-06 -1.2575009e-05 4.847924e-06 6.2387176e-06 -8.435661e-06 1.2371697e-05

sam.image_encoder.temporal_transformer.layers.0.0.fn.to_out.0.weight f4 [12, 128]
00000000: 9953 5238 fdbc 57b8 1209 4f38 031c 4eb8
00000010: be25 5138 90b1 57b8 fe0d 5a38 e04e 45b8
00000020: 8570 56b8 b1d9 5738 caa2 57b8 3e8d 5538
00000030: 2560 56b8 7968 4db8 21af 5538 cb42 5638
00000040: 8a33 4f38 54e3 5ab8 14f7 5338 548b 5538
00000050: bb3b 5938 62aa 57b8 8719 5638 7f8c 55b8
00000060: 7496 5738 77b8 5738 b45f 54b8 78ac 4d38
00000070: 0293 5538 9355 4e38 7a60 4f38 2e72 5638
00000080: 32b8 4ab8 8364 4838 1a63 4838 b036 4838
00000090: 0c60 4238 9334 3c38 d9c3 47b8 e443 4a38
000000a0: 10be 3f38 9bfa 3838 306d 4d38 5d96 4638
000000b0: 4efa 37b8 9ded 4ab8 7ba3 2f38 2bb3 4ab8
000000c0: 0c69 47b8 2e63 42b8 8699 4738 5a52 47b8
000000d0: e66c 4738 95fd 3ab8 3f54 4838 bc93 4438
000000e0: bb42 4a38 78cb 3938 c33f 47b8 8a16 3f38
000000f0: 7255 49b8 cb02 48b8 a7cb 47b8 50e3 4cb8
00000100: 73f9 2bb8 26f6 2938 e845 2d38 66bf 2838
00000110: 9c0c 9b37 2bf4 2a38 8b47 2db8 1a89 2838
00000120: ba15 f137 348b 2538 d692 2cb8 691f 29b8
00000130: ed7a 2bb8 6163 1738 ffe9 28b8 9a24 1538
00000140: 74e8 27b8 ad52 22b8 302a 2ab8 44a9 1a38
00000150: 8ce0 2238 bdbe 2738 ea6a 2ab8 5fe3 2bb8
00000160: 5041 2d38 1d88 2738 15be 28b8 affc 28b8
00000170: c3a3 18b8 d18a 28b8 3aab 26b8 fa35 2cb8
00000180: c720 0eb8 94e0 11b8 f4f0 7037 28d2 0f38
00000190: dcfc 0d38 41e7 05b8 f26a 1038 4897 0738
000001a0: 5a6a 11b8 17a5 1238 e623 08b8 3911 14b8
000001b0: 56e0 10b8 af23 1138 c19f 12b8 ff07 11b8
000001c0: 2be2 1338 ade0 0c38 a70e 0d38 b215 0db8
000001d0: 7fc0 0e38 ef4b 1238 47a8 1238 5a18 0d38
000001e0: e59c 1338 d4cc 0138 ae4a 0fb8 5b68 1138
000001f0: 4c44 0d38 a831 ed37 bd8a 0b38 2065 0d38
00000200: 70d5 2c39 dbea 2db9 c6de 2c39 3dcb 2cb9
00000210: 8ebe 2c39 ffce 2db9 a46c 2f39 f09e 2ab9
00000220: 5763 2db9 27f0 2d39 58e3 2db9 6645 2d39
00000230: 115f 2db9 e0f4 2cb9 e448 2d39 dd78 2d39
00000240: c8db 2c39 dea8 2fb9 b9ab 2d39 0441 2d39
00000250: 04ee 2e39 ecc6 2db9 f06b 2d39 0844 2db9
00000260: cce6 2d39 e5cf 2d39 2812 2db9 14f2 2c39
00000270: 8c41 2d39 6ded 2c39 45e8 2c39 9664 2d39
00000280: 8cf2 2ab9 0b24 2a39 aa23 2a39 580d 2a39
00000290: 37aa 2839 d55d 2739 8efb 29b9 8c0e 2b39
000002a0: 700f 2839 5fb5 2639 1fb4 2c39 b5ab 2939
000002b0: 5485 26b9 26fa 2ab9 5b95 2239 2cdd 2ab9
000002c0: d3c6 29b9 70ae 28b9 10d9 2939 ceb7 29b9
000002d0: ddbe 2939 873c 27b9 ce1d 2a39 2ab9 2939
000002e0: 8ccf 2a39 0df8 2639 10b9 29b9 1822 2839
000002f0: 387b 2ab9 6109 2ab9 0be7 29b9 aa4e 2cb9
00000300: 4151 21b9 cd83 2039 2ccf 2139 0d04 2039
00000310: ad9a 0639 70f7 2039 87cf 21b9 aee8 1f39
00000320: 6e10 1039 2834 1f39 a800 22b9 d62c 20b9
00000330: a327 21b9 78d3 1a39 c814 20b9 5725 1a39
00000340: 36b0 1fb9 d629 1eb9 4297 20b9 eeb3 1b39
00000350: 9b56 1e39 4f96 1f39 62b3 20b9 2c4c 21b9
00000360: 8860 2239 4493 1f39 5405 20b9 ec51 20b9
00000370: bf3a 1bb9 abf2 1fb9 cd91 1fb9 806b 21b9
00000380: 9340 16b9 c5d1 17b9 fddf f238 86f1 1639
00000390: ed4f 1639 06dc 13b9 c527 1739 f26d 1439
000003a0: 4f91 17b9 a91a 1839 879a 14b9 1599 18b9
000003b0: 3399 17b9 ee7e 1739 ea76 18b9 4e6d 17b9
000003c0: 212f 1939 4ac8 1539 f4ce 1539 4b3c 16b9
000003d0: 9a7f 1639 9efd 1739 be1c 1839 6ed1 1539
000003e0: 2277 1839 3880 1239 5fb6 16b9 f493 1739
000003f0: d5f3 1539 68d0 0e39 1cb9 1539 f2ef 1539
5.0145758e-05 -5.1436004e-05 4.9361093e-05 -4.9140315e-05 4.9864633e-05 -5.1425362e-05 5.198828e-05 -4.7041918e-05
-5.1126368e-05 5.1462735e-05 -5.1411604e-05 5.09147e-05 -5.1111118e-05 -4.8973106e-05 5.094626e-05 5.108378e-05
4.9400645e-05 -5.2186966e-05 5.053643e-05 5.0912917e-05 5.179246e-05 -5.1418676e-05 5.104535e-05 -5.0914005e-05
5.1400115e-05 5.143179e-05 -5.063387e-05 4.9036433e-05 5.092007e-05 4.9193924e-05 4.9442497e-05 5.1127914e-05
-4.83321e-05 4.7777325e-05 4.777601e-05 4.7734648e-05 4.6342655e-05 4.4871656e-05 -4.7627695e-05 4.822378e-05
4.5714958e-05 4.4102413e-05 4.8977497e-05 4.7346915e-05 -4.3863714e-05 -4.8381848e-05 4.1875504e-05 -4.8327416e-05
-4.754313e-05 -4.6345573e-05 4.7588277e-05 -4.7521993e-05 4.7546717e-05 -4.4582022e-05 4.7762176e-05 4.686763e-05
4.82227e-05 4.4296932e-05 -4.750468e-05 4.555894e-05 -4.800171e-05 -4.7686317e-05 -4.7634963e-05 -4.884909e-05
-4.1001895e-05 4.0521983e-05 4.131152e-05 4.0232575e-05 1.8483312e-05 4.0758558e-05 -4.1313044e-05 4.0182007e-05
2.8739556e-05 3.946871e-05 -4.1144747e-05 -4.0321993e-05 -4.088406e-05 3.609376e-05 -4.0272247e-05 3.5558456e-05
-4.003239e-05 -3.8700808e-05 -4.057045e-05 3.6874102e-05 3.8832935e-05 3.999354e-05 -4.063073e-05 -4.0981333e-05
4.130724e-05 3.9942668e-05 -4.023135e-05 -4.028965e-05 -3.639214e-05 -4.0183604e-05 -3.973695e-05 -4.1058265e-05
-3.3885965e-05 -3.477985e-05 1.4361216e-05 3.428958e-05 3.3852513e-05 -3.1925043e-05 3.4431876e-05 3.23274e-05
-3.466974e-05 3.4962864e-05 -3.245836e-05 -3.530199e-05 -3.4541205e-05 3.4603927e-05 -3.4957895e-05 -3.457814e-05
3.5258166e-05 3.3587847e-05 3.3630666e-05 -3.3637225e-05 3.4034714e-05 3.487983e-05 3.4965833e-05 3.36397e-05
3.519365e-05 3.0946758e-05 -3.4163408e-05 3.4667883e-05 3.3680626e-05 2.8275725e-05 3.3269393e-05 3.37112e-05
0.0001648271 -0.00016586056 0.00016486188 -0.0001647891 0.00016474185 -0.00016575678 0.00016729772 -0.00016271672
-0.00016535573 0.0001658803 -0.00016583258 0.00016524419 -0.0001653398 -0.00016494421 0.0001652572 0.00016543591
0.00016485073 -0.00016752208 0.00016562537 0.00016522786 0.00016682601 -0.0001657267 0.00016538776 -0.0001652391
0.00016584544 0.00016576012 -0.0001650533 0.0001649338 0.00016522984 0.00016491646 0.00016489725 0.00016536037
-0.00016302819 0.0001622589 0.0001622575 0.00016217434 0.00016085138 0.00015961316 -0.00016210807 0.0001631325
0.0001602748 0.0001589856 0.00016470299 0.00016181062 -0.00015880662 -0.00016305651 0.00015505163 -0.00016294856
-0.00016191164 -0.00016086712 0.00016197958 -0.00016185569 0.00016188198 -0.0001594891 0.00016223566 0.00016186075
0.0001628978 0.000159234 -0.00016186037 0.0001603443 -0.00016258366 -0.00016215957 -0.00016203166 -0.00016432503
-0.00015384426 0.00015307889 0.00015431334 0.00015260298 0.00012836857 0.00015350967 -0.00015431466 0.00015250102
0.0001373903 0.00015182851 -0.00015449768 -0.00015275492 -0.00015368922 0.00014765363 -0.0001526653 0.00014700495
-0.00015229065 -0.0001508364 -0.00015315137 0.00014848981 0.00015100317 0.00015219416 -0.00015325614 -0.00015382533
0.00015485485 0.00015218282 -0.00015260774 -0.00015289307 -0.00014803837 -0.00015253822 -0.00015217737 -0.00015394203
-0.0001432917 -0.00014478627 0.0001158118 0.00014395089 0.0001433489 -0.00014100978 0.00014415297 0.00014155338
-0.00014454614 0.00014505781 -0.00014171946 -0.00014552877 -0.00014457553 0.00014447767 -0.00014540149 -0.00014441201
0.00014608774 0.00014284361 0.00014286843 -0.00014327576 0.0001435265 0.00014494962 0.00014506557 0.00014287766
0.0001454023 0.0001397141 -0.00014373053 0.00014455599 0.00014300582 0.00013619813 0.00014278706 0.00014299134

sam.image_encoder.temporal_transformer.layers.0.0.fn.to_out.0.bias f4 [12]
00000000: b19a 4e3d 2c7d d7b9 8c14 02bc f151 3b3d
00000010: d35e 773d 322d 67bd 1e9c 1f3d 9a2f 7cbd
00000020: 9941 6fbd 47fb f13b e3fc 273d e42d 913d
0.050440494 -0.00041101256 -0.007939469 0.045732442 0.060393166 -0.056439586 0.038967244 -0.061568834
-0.05841217 0.007384691 0.041012656 0.07088831

sam.image_encoder.temporal_transformer.layers.0.1.norm.weight f4 [12]
00000000: caea e23c de74 1cbd 67d3 ea3c 142a af3c
00000010: 3db0 cb3c 62d9 f33c a3e2 913c 6a83 d33c
00000020: c10d 193c 5575 af3c 9e77 90bc 2a20 cabc
0.027699847 -0.03819739 0.028665258 0.02138237 0.02486431 0.029766742 0.017808264 0.025819499
0.009341658 0.021418253 -0.017635163 -0.02467354

sam.image_encoder.temporal_transformer.layers.0.1.norm.bias f4 [12]
00000000: 085a 923c ba96 913c 24aa a43c 3011 b73c
00000010: facc 2f3c fc3c 9dbc b854 9b3c a220 a3bc
00000020: ba7d 9ebc 2663 9fbc 0b43 c3bc 5457 9cbc
0.017865196 0.017772067 0.02010066 0.022347063 0.010730023 -0.019194119 0.018961295 -0.019913021
-0.01934706 -0.019456457 -0.02383568 -0.01908461

sam.image_encoder.temporal_transformer.layers.0.1.fn.net.0.weight f4 [48, 12]
00000000: 435f 913c 1b5c 87bc 8ed9 953c 57a5 723c
00000010: 6a7a 593a 131b 95bc a84c 813c e8b5 96bc
00000020: 32b2 21bc 16a2 7bbc f099 5abc f02a a5bc
00000030: 3ec5 8a3c 8fba 96bc 9330 913c 2f3e 713c
00000040: 3211 bcb8 c3f5 89bc 507b 783c 2ab3 92bc
00000050: 2cdc 1dbc fa2b 75bc 170f 55bc 4f04 a3bc
00000060: e625 913c fc03 a7bc d2f2 983c 876d 7f3c
00000070: c9c4 4439 ef59 8dbc e88d 833c dbd0 96bc
00000080: b6fa 38bc fd07 84bc 748b 60bc 5fe0 a7bc
00000090: 469a 8b3c 5082 9dbc 1b02 933c 4f12 743c
000000a0: 51f1 16b9 d25b 89bc dcb4 7b3c f2f1 92bc
000000b0: 82eb 25bc cda0 7abc 7120 57bc 21ea a3bc
000000c0: 96b8 863c 27a8 7bbc 6282 893c 1a76 653c
000000d0: 9e82 a638 d326 8bbc 9ea3 6b3c f7de 90bc
000000e0: c4c7 01bc 3bd5 5fbc ecef 4ebc 13ac 9ebc
000000f0: b162 903c 0b65 b1bc 1de4 993c 2558 803c
00000100: c491 08b8 dba3 8abc 8c6d 843c 5cf6 95bc
00000110: 8280 42bc 05be 86bc 0103 62bc 9748 a8bc
00000120: 8d6b 8a3c 22d4 95bc f6c0 903c ab77 703c
00000130: d9ae dab8 8fc4 89bc 30a9 773c fd76 92bc
00000140: 5c68 1cbc 681e 74bc 9778 54bc fbbb a2bc
00000150: 268a 8b3c 1353 97bc 20e1 913c 12b5 723c
00000160: 4157 12b8 b6aa 8abc 45df 793c 914d 93bc
00000170: da93 1fbc 5492 76bc 1d28 56bc c98f a3bc
00000180: 143e 833c 6708 74bc e60e 863c 33dd 5e3c
00000190: b08f ecb8 fc7c 88bc 75e8 643c a744 8ebc
000001a0: c3c1 f3bb a8ca 58bc 85ed 4abc d307 9cbc
000001b0: 4c0a a4bc dfe5 b53c 050b b0bc 8f9b 8ebc
000001c0: e362 07bb 637d a03c 481a 97bc 8c4a a33c
000001d0: eb06 803c a97f 9a3c 68bb 7a3c fee2 b23c
000001e0: 9965 813c 7b86 6ebc dd0a 843c ff43 5b3c
000001f0: 9a38 4fb9 c7f3 86bc ca25 613c 41b8 8cbc
00000200: 784a eabb 8b75 54bc 58b9 48bc 335f 9abc
00000210: a50f 883c 4837 7dbc 80c0 8a3c 4ac5 673c
00000220: 93df 3939 a067 8cbc 0d17 6e3c 9af2 91bc
00000230: 5c7d 04bc 9233 62bc 5477 50bc 2eac 9fbc
00000240: cd62 843c 0e88 77bc f447 873c ce25 613c
00000250: 7943 7eb8 c43f 89bc 0e35 673c 3518 8fbc
00000260: ab91 f9bb ec6d 5bbc 473c 4cbc c9ee 9cbc
00000270: 4147 8c3c 0a96 9dbc 3088 933c d949 753c
00000280: 7bb6 bcb8 bf15 8abc 72c7 7c3c cf86 93bc
00000290: 5ff3 26bc 5682 7bbc 43fe 57bc 3564 a4bc
000002a0: 148b 853c b0fe 79bc 746a 883c b957 633c
000002b0: 55ce 4d36 b022 8abc 1d6c 693c 40f6 8fbc
000002c0: ebb7 febb 10bb 5dbc 7d8d 4dbc bdce 9dbc
000002d0: 2ff1 a33c e6cc bfbc 28ef b03c c3f7 8c3c
000002e0: 0145 0c3b 4b09 a6bc f314 983c 9c61 a5bc
000002f0: 5778 85bc 1d5b 9dbc 9cf3 84bc 3bdb b5bc
00000300: ec2a 8c3c 1d2f a3bc e66c 943c 0e3c 763c
00000310: d0b4 49b9 1bd4 88bc c53b 7e3c af28 93bc
00000320: dab1 2cbc a601 7fbc 03d3 58bc feaf a4bc
00000330: 02e4 8e3c 421d a9bc 686e 973c 415a 7c3c
00000340: d103 69b8 f795 8abc 8b0b 823c ce26 95bc
00000350: cdee 36bc ce1a 83bc 9c89 5dbc ebe1 a6bc
00000360: 19a5 8e3c 8a65 86bc 80ec 913c 1565 733c
00000370: 0a81 223a 4280 91bc e882 7b3c 2169 96bc
00000380: 3a84 16bc 4857 71bc 6425 58bc 2051 a4bc
00000390: 5d9c 8d3c d46a a9bc 2e8b 963c 8619 7a3c
000003a0: 3347 2db9 2d2e 89bc 6523 813c 7618 94bc
000003b0: 2f7c 35bc c76c 82bc 0d03 5cbc 8913 a6bc
000003c0: 5cb5 8a3c de6d 94bc d5b9 903c 9ea5 703c
000003d0: 6dfa 47b8 9767 8abc 56bf 773c 23c7 92bc
000003e0: 2e8a 1bbc 04a5 73bc 35bd 54bc bad4 a2bc
000003f0: 9a50 913c f94f 96bc e8ea 963c 4fc5 7a3c
0.01774562 -0.016523411 0.018292215 0.014809928 0.0008296134 -0.018201387 0.015783623 -0.018397287
-0.009869145 -0.0153584685 -0.013342366 -0.020162076 0.016939756 -0.018399505 0.017723357 0.014724298
-8.9677415e-05 -0.016840821 0.015166119 -0.017907698 -0.009635013 -0.014964098 -0.013004086 -0.019899515
0.017718267 -0.020387642 0.018670473 0.015590078 0.00018765325 -0.017254798 0.016058877 -0.018410137
-0.011290243 -0.01611709 -0.013705123 -0.02049273 0.017041337 -0.019227177 0.01794534 0.014896943
-0.00014395012 -0.016767416 0.015362944 -0.017937634 -0.01012695 -0.015297127 -0.013130293 -0.020009102
0.01644544 -0.015359915 0.016785804 0.014005208 7.939826e-05 -0.016986286 0.014382271 -0.017684443
-0.007921163 -0.013661678 -0.012630444 -0.01936916 0.017625185 -0.021654626 0.01878553 0.01566703
-3.256068e-05 -0.016923836 0.016165517 -0.01830595 -0.011871459 -0.01644803 -0.0137946615 -0.020542426
0.016896987 -0.01828963 0.017670136 0.014676969 -0.00010427618 -0.01681736 0.015116021 -0.017879004
-0.009546366 -0.014899828 -0.012968204 -0.019865027 0.017033648 -0.01847223 0.017807543 0.014813678
-3.4890374e-05 -0.016927104 0.0152509855 -0.017981322 -0.00973984 -0.015049536 -0.013071087 -0.019966023
0.016020812 -0.014894581 0.016364526 0.013602543 -0.00011280121 -0.01666116 0.013971438 -0.01736672
-0.0074388697 -0.013231911 -0.012385731 -0.0190467 -0.020024441 0.022204338 -0.02148963 -0.01740816
-0.0020658306 0.019591039 -0.018445149 0.019933008 0.015628299 0.018859701 0.01530347 0.021836754
0.015795516 -0.01455843 0.016118461 0.013382911 -0.00019762144 -0.016473664 0.01374192 -0.017177703
-0.0071499906 -0.012967478 -0.012251221 -0.018844223 0.016609022 -0.015455075 0.016937494 0.0141461585
0.00017726263 -0.017139256 0.014531863 -0.017815877 -0.008086529 -0.013806241 -0.012723763 -0.019491281
0.016160393 -0.015108122 0.016513802 0.0137419235 -6.0621158e-05 -0.016754039 0.01411177 -0.017467597
-0.007616242 -0.013392907 -0.012465543 -0.01915683 0.01712382 -0.019236583 0.018009275 0.01497122
-8.998528e-05 -0.016856072 0.015428411 -0.018008618 -0.01018986 -0.015350899 -0.013183179 -0.020067314
0.01630167 -0.015258476 0.016652323 0.013875895 3.0667481e-06 -0.016862243 0.014246968 -0.017573476
-0.0077733896 -0.013533369 -0.0125459405 -0.01926362 0.020012466 -0.023413133 0.021598414 0.017207986
0.0021403434 -0.020268103 0.018564677 -0.020188145 -0.016292734 -0.019208485 -0.016229443 -0.022199264
0.01711031 -0.019919926 0.018118333 0.015028967 -0.00019236212 -0.016702702 0.01551718 -0.017963735
-0.01054045 -0.015564358 -0.013233903 -0.02010345 0.017442707 -0.020643834 0.018485263 0.015402378
-5.5555083e-05 -0.016917212 0.015874645 -0.01820698 -0.011165333 -0.016003992 -0.013521578 -0.020371398
0.01741271 -0.01640584 0.017812967 0.014855643 0.0006199038 -0.017761353 0.015351035 -0.018360676
-0.009186799 -0.014730282 -0.013192508 -0.020058215 0.017286474 -0.020680822 0.018376913 0.015264874
-0.0001652509 -0.016745651 0.015763948 -0.01807807 -0.011076971 -0.01592101 -0.013428462 -0.020272987
0.016932182 -0.018118795 0.017666737 0.014687924 -4.7678524e-05 -0.016895099 0.015121302 -0.017917221
-0.009493394 -0.014870886 -0.012984564 -0.019876827 0.01773863 -0.01834868 0.018422559 0.015305831

sam.image_encoder.temporal_transformer.layers.0.1.fn.net.0.bias f4 [48]
00000000: 1826 dcbc 5b9a e4bc 2ca3 efbc 3d29 e9bc
00000010: 95f5 d0bc 01af f4bc 2af0 e3bc b41f e5bc
00000020: cfe4 ccbc a6f0 f53c 9135 cabc d2e4 d1bc
00000030: 4dab cebc ea4a e9bc 83fb cfbc 2187 f5bc
00000040: 7d9d ecbc 6243 f0bc c7f3 d9bc 0540 f0bc
00000050: 8a07 e3bc 9792 e5bc ca89 cfbc 7204 ecbc
00000060: b6f5 d0bc ddbf ecbc 4c16 e5bc 6b9a efbc
00000070: 782f ccbc 1ccf dbbc 0e5f f0bc 2d80 d3bc
00000080: cbf7 d3bc 49b4 f53c 10cc d1bc 2eb1 ecbc
00000090: bd20 edbc 81c2 e8bc 6d72 d3bc 4dbe edbc
000000a0: 3f51 c9bc dbf8 febc e2f4 cbbc ccf4 ecbc
000000b0: 4896 f2bc 874e bbbb 55b4 d1bc 0fd7 fb3c
-0.026873633 -0.027905634 -0.029252611 -0.028462047 -0.025507728 -0.029868605 -0.02782448 -0.027969219
-0.025011448 0.030021977 -0.024683746 -0.025621805 -0.025228167 -0.028478105 -0.025388485 -0.029971661
-0.02888369 -0.029329006 -0.0266055 -0.029327402 -0.027713556 -0.028024001 -0.025334258 -0.028810713
-0.02550779 -0.028900081 -0.027964734 -0.029248437 -0.024924979 -0.026832156 -0.0293422 -0.025817955
-0.025874993 0.029993193 -0.02561 -0.02889308 -0.028946275 -0.02841306 -0.025811398 -0.029021407
-0.024574874 -0.031124523 -0.024897043 -0.028925322 -0.029612675 -0.0057161483 -0.025598684 0.030742196

sam.image_encoder.temporal_transformer.layers.0.1.fn.net.3.weight f4 [12, 48]
00000000: 38ea c63c ad8c d23c 4a44 d43c 8661 d53c
00000010: 7727 c83c 3cda d93c 0d6b d23c 7bd9 d13c
00000020: de89 ca3c ba98 d7bc affd ca3c 18d4 c63c
00000030: 20ff c93c 4b96 d43c 7e2a c93c 1fce dd3c
00000040: 72c6 d73c d08c d73c 842f c33c ab2f d93c
00000050: f427 d13c 2b02 cb3c e254 c93c 6f3d d83c
00000060: b022 c83c 5780 d63c deb0 d63c f441 d83c
00000070: 0ec8 ca3c 8de3 ca3c a2e3 d83c 5c6a c53c
00000080: 3d4d c53c 49c8 d5bc 7404 c73c d966 d73c
00000090: 4936 d83c dc3a d53c a2bf c53c 6b2d d83c
000000a0: c4f7 ca3c 9eee d73c 9233 ca3c 3c81 d73c
000000b0: e672 da3c 96a5 1e3d 52a5 c83c 0a22 e3bc
000000c0: dc18 e13c 49db e03c f49e e23c 764d e13c
000000d0: 84ed dc3c 6f9e e13c 03c4 e03c 4d01 e13c
000000e0: aa5a dc3c 40fc e5bc 9438 dc3c d5ff dc3c
000000f0: 5daa dc3c 9467 e13c dfda dc3c d6e0 e03c
00000100: 8b57 e13c 07c3 e13c b419 df3c b060 e13c
00000110: 27b1 e03c 0799 e13c 39c4 dc3c 3665 e13c
00000120: 4cee dc3c 509a e13c d5a4 e03c 4a8c e13c
00000130: 523a dc3c 5b66 df3c 0584 e13c 7941 dd3c
00000140: 125f dd3c 0438 e7bc 2000 dd3c 56a2 e13c
00000150: ea5d e13c e747 e13c 7640 dd3c 5986 e13c
00000160: 9fa9 db3c d720 e13c efbd dc3c 1481 e13c
00000170: 4e33 e13c 97ee c03c e95f dd3c 401a dfbc
00000180: a222 f4bc 51c5 f3bc 05c3 eebc 7781 f2bc
00000190: 177e f8bc 4048 edbc 9d06 f4bc 1850 f3bc
000001a0: 7cab fabc 9715 e73c 59a0 fbbc 11c1 f7bc
000001b0: 5cdd f9bc a033 f2bc 8021 f9bc ba87 e7bc
000001c0: fe7b f1bc 0164 efbc 7c62 f3bc dee1 efbc
000001d0: 4f0a f4bc 67fb f0bc 3757 f9bc d459 efbc
000001e0: 987b f8bc cd08 f1bc 7bcc f4bc 36f9 efbc
000001f0: 8f02 fbbc d41e f5bc adba efbc 87c6 f6bc
00000200: 5293 f6bc cf68 e73c c7d8 f7bc d747 f1bc
00000210: 4352 f1bc 79a7 f2bc 33e6 f6bc 10f7 f0bc
00000220: a61a fcbc f236 d6bc eba7 fabc 2a30 f1bc
00000230: a8d2 eebc 9889 82bc c740 f8bc 72f5 dc3c
00000240: 6f2f 113d cae9 1f3d 4370 243d 4c29 243d
00000250: b14b 113d 3f98 2c3d 24a6 1f3d db53 1f3d
00000260: 2284 123d 09ba 25bd 4992 123d 9a46 103d
00000270: 6c79 123d c94a 233d 3507 123d c979 223d
00000280: d5bc 273d ad73 283d 69b6 0e3d 8667 2a3d
00000290: 741e 1e3d bfcb 173d ba17 123d de40 1b3d
000002a0: 1c48 113d d651 263d e086 243d 8924 293d
000002b0: 9e8c 123d 4643 163d 8d24 2a3d 0d37 0f3d
000002c0: 3a29 0f3d 3211 25bd d76e 103d 49aa 273d
000002d0: 3a83 283d 09e7 233d bf7b 0f3d 8ec1 283d
000002e0: 7601 123d 6c94 473d c384 123d 99af 273d
000002f0: c8a1 2c3d c7d9 303d b230 123d e6dc 39bd
00000300: 8f57 e4bc f02a f5bc b520 f0bc 51bb f7bc
00000310: 6acc edbc 7324 f8bc 4e57 f5bc 2bb2 f3bc
00000320: 7a45 f2bc 0a8a d53c 6b6c f3bc fa9b ebbc
00000330: b010 f1bc 5a1b f6bc c387 efbc f2e5 cbbc
00000340: 5e2c fabc 5fd3 f6bc e2f0 e1bc 8879 fabc
00000350: 72a3 f3bc d622 e6bc 8be1 efbc e6a5 d8bc
00000360: 48c9 edbc fd7c f7bc cf3e fcbc 4cfa f8bc
00000370: b3d1 f2bc 7b33 edbc 80d0 f9bc 3bdb e8bc
00000380: 8f7f e8bc 7240 d73c 04f0 ebbc e2ae f9bc
00000390: 3dcd fabc 79ae f7bc 6463 e9bc 776e fabc
000003a0: 35c5 f3bc 9a94 05bd a3dc f1bc 6783 f9bc
000003b0: 3972 fbbc 10ea 063d 6c41 eebc 8d89 dd3c
000003c0: 6ea6 e0bc c7d3 05bd 3fb3 13bd e049 0dbd
000003d0: a5bb d7bc f5b5 20bd ba14 05bd 4fea 05bd
000003e0: 90bc d2bc be24 143d 978a cfbc 14cb d7bc
000003f0: 0aa0 d5bc 87b6 0cbd 943b d7bc 4645 04bd
0.024281606 0.025701845 0.025911469 0.02604748 0.02443288 0.02659332 0.025685811 0.025616398
0.024723943 -0.026317943 0.024779169 0.024271056 0.024657786 0.025950572 0.024556395 0.027075825
0.026339743 0.026312262 0.023826368 0.026511988 0.025531746 0.024781307 0.024576608 0.026396481
0.024430603 0.026184244 0.026207384 0.026398636 0.024753597 0.024766708 0.026475731 0.024098568
0.024084682 -0.02609648 0.024294116 0.026294159 0.026393073 0.026029043 0.02413923 0.026388844
0.024776347 0.026358899 0.024682794 0.026306741 0.026666116 0.038732134 0.024492893 -0.027726192
0.027477674 0.027448313 0.027663685 0.027502757 0.026968725 0.027541367 0.027437216 0.02746644
0.0268987 -0.028074384 0.026882447 0.026977459 0.026936704 0.02751521 0.026959835 0.02745096
0.027507564 0.027558817 0.027233936 0.027511925 0.027428223 0.02753879 0.026949035 0.027514081
0.026969098 0.027539402 0.027422348 0.027532715 0.026883278 0.027270487 0.027528772 0.027008759
0.027022872 -0.028224953 0.026977599 0.027543228 0.027510602 0.027500106 0.027008276 0.027529882
0.02681428 0.02748148 0.026946036 0.02752737 0.027490284 0.023551269 0.027023273 -0.027234197
-0.02980167 -0.029757174 -0.029145727 -0.02960275 -0.030333562 -0.028965116 -0.02978831 -0.029701278
-0.030599348 0.028208537 -0.030716108 -0.030243428 -0.03050106 -0.029565632 -0.030411482 -0.028262962
-0.02947807 -0.02922249 -0.029710047 -0.029282507 -0.029790072 -0.029416753 -0.030437095 -0.029217638
-0.030332372 -0.029423142 -0.02988266 -0.029293638 -0.030640868 -0.029921927 -0.029263819 -0.030123962
-0.030099545 0.028248219 -0.030254735 -0.029453201 -0.02945817 -0.029620873 -0.030139064 -0.029414684
-0.030774426 -0.026149247 -0.030597648 -0.029441912 -0.029153183 -0.01593475 -0.030304326 0.026972506
0.035445627 0.039041318 0.040146124 0.040078446 0.035472576 0.04213738 0.038976803 0.03889833
0.035770543 -0.04046062 0.03578404 0.03522358 0.03576033 0.039866243 0.035651404 0.039666925
0.04095157 0.041125942 0.03484193 0.041602634 0.03860326 0.03705954 0.03566716 0.03790366
0.03546916 0.04060539 0.04016769 0.04129461 0.035778634 0.03668525 0.041538764 0.03496461
0.034951426 -0.0402996 0.035261955 0.04093388 0.041140772 0.040015254 0.035030123 0.041200213
0.035645925 0.04872553 0.035771143 0.040938947 0.042146474 0.04317644 0.03569097 -0.04537668
-0.027873782 -0.0299277 -0.02931247 -0.030240687 -0.029028136 -0.030290818 -0.029948857 -0.029748043
-0.029574145 0.026066799 -0.029714784 -0.028760899 -0.029426903 -0.03004234 -0.02923954 -0.02488992
-0.030538734 -0.030130086 -0.027580682 -0.030575529 -0.029741023 -0.028092783 -0.029282352 -0.026446294
-0.029026642 -0.030210966 -0.030791668 -0.030392788 -0.029641008 -0.028955212 -0.030494928 -0.02842485
-0.028381137 0.026275847 -0.028800972 -0.030478898 -0.030615443 -0.030234562 -0.028489776 -0.030570252
-0.029757122 -0.03261242 -0.029524153 -0.030458165 -0.030694114 0.032938063 -0.02908393 0.027043128
-0.02742311 -0.03267267 -0.036059614 -0.03449428 -0.026334593 -0.039236028 -0.03249047 -0.032694157
-0.02572468 0.036167853 -0.02533464 -0.026341952 -0.02607729 -0.03435376 -0.026273526 -0.032292627

sam.image_encoder.temporal_transformer.layers.0.1.fn.net.3.bias f4 [12]
00000000: 0e4b 513d f2a9 9aba 335c ecbb a784 3b3d
00000010: d416 8f3d 4117 69bd 03ad 1d3d 62e6 7abd
00000020: 6202 6ebd 3d97 d03b 15fd 273d 6e83 953d
0.05109697 -0.0011799915 -0.0072131394 0.045780804 0.06986776 -0.056906942 0.038495075 -0.061254866
-0.05810774 0.0063656853 0.041012842 0.07300459

sam.image_encoder.temporal_transformer.layers.1.0.norm.weight f4 [12]
00000000: fed8 d0bc cacc e6bc 74c5 05bd 1e63 c03c
00000010: 25ab 213d dc48 12bd 93f1 25bd 8459 35bd
00000020: 855d 2f3d cbe1 f13c 0c8b 403d d374 1ebd
-0.025494095 -0.028173823 -0.03265901 0.023484763 0.039469857 -0.035714015 -0.040513586 -0.044274822
0.042813797 0.029526612 0.047007605 -0.03868563

sam.image_encoder.temporal_transformer.layers.1.0.norm.bias f4 [12]
00000000: 2e6c 1bbd a67d 9e3c 80dd 42bd 39cc ac3c
00000010: 172d 9b3c cb1f 9f3c ba5e 42bd 6013 333d
00000020: dc9a 22bd 1d76 9fbc 4225 2e3d d4c0 22bd
-0.037944965 0.019347023 -0.04757452 0.021093475 0.018942399 0.01942434 -0.04745362 0.04371965
-0.039698467 -0.0194655 0.042516 -0.039734676

sam.image_encoder.temporal_transformer.layers.1.0.fn.to_qkv.weight f4 [384, 12]
00000000: 9942 37b4 1f8b 8ab5 5881 32b5 64f9 bbb4
00000010: a733 8135 f22e 24b5 6efb 13b5 1702 3eb4
00000020: c1c8 f735 c13d fbb4 1025 9eb4 b94e 5b34
00000030: a7a5 0d34 a861 4935 f182 1735 6662 9834
00000040: 8508 3bb5 5dcf e534 9cb1 ec34 5eec dd33
00000050: 910b d7b5 0ac0 f134 3cc5 6a34 8802 3bb4
00000060: 3450 cdb3 f518 0cb5 812e eab4 3967 5ab4
00000070: 954c 0235 1e9f 9cb4 c9c9 adb4 9b52 86b3
00000080: 4070 b035 f6d2 c9b4 aabe 22b4 a85d 0c34
00000090: 84ff 20b4 478a 6bb5 140b 25b5 53ba a9b4
000000a0: 30d0 5a35 dd3f 09b5 1975 04b5 98d0 0fb4
000000b0: aa50 e735 56d5 f7b4 0dba 87b4 8dda 4b34
000000c0: 4e03 8533 842e af34 503b 9e34 f4dc 0434
000000d0: 5eff a3b4 2c4c 4334 4ac7 5f34 979d 1a33
000000e0: 1eec 81b5 6c23 9034 c7da c633 495f b7b3
000000f0: 98f4 2133 9417 4e34 eaf4 4434 2964 9633
00000100: 46c7 42b4 abf3 e533 132c 0634 7df8 ad32
00000110: 4a2f 2eb5 2344 3b34 ee1c 6633 97df 5eb3
00000120: ded2 a3b3 5c0f dcb4 c72a bfb4 8659 27b4
00000130: 1334 cd34 fd12 77b4 5c11 8ab4 92ed 4ab3
00000140: aca2 9735 95ce a8b4 c67f fab3 b492 e033
00000150: bbb9 54b4 8617 b6b5 4908 35b5 ccba b4b4
00000160: 455e ac35 9e0a 65b5 60da 20b5 2a7a b0b4
00000170: d53d 0836 d21f bfb4 3f8d c1b4 5afe 3234
00000180: 4b4a f9b3 f91f 2eb5 804e 09b5 12f2 85b4
00000190: 28b0 2135 5def c4b4 33c6 d1b4 1925 b4b3
000001a0: 147e c735 f5a3 e2b4 58cc 4ab4 0a7f 2734
000001b0: 9cdc 2bb4 f1da 7eb5 173a 2cb5 37a9 b3b4
000001c0: 772d 6d35 f769 15b5 fd53 0cb5 f976 23b4
000001d0: 1b76 ef35 9008 fcb4 8392 92b4 8c1c 5534
000001e0: 4a22 9333 74bc c234 3e39 ae34 ee9a 1634
000001f0: 5eff b5b4 b0de 5734 74c0 7834 92c5 2c33
00000200: a2d7 8bb5 f0dc 9d34 aeb3 df33 1339 cbb3
00000210: f2a5 1134 11a2 5035 ae43 1a35 a29b 9b34
00000220: b0b0 41b5 57c8 ef34 c563 f234 e517 ec33
00000230: 40b0 dab5 1712 f234 f7fe 7134 1234 3eb4
00000240: d01f 64b1 91e1 91b2 8380 74b2 50ad 09b1
00000250: fb83 8f32 7b02 46b2 de7d 1eb2 54d3 fbb0
00000260: 65fa 9833 73c9 5ab2 5506 52b1 433a 9e31
00000270: fc8f 0eb4 cc88 4ab5 9772 18b5 80e2 99b4
00000280: ab2c 3c35 3996 e6b4 bf67 eeb4 2aa3 deb3
00000290: 00b4 d735 2ce6 f3b4 30ca 6cb4 cd9d 3c34
000002a0: a09c 3934 f416 8d35 dd7c 3335 9e13 bd34
000002b0: a39e 83b5 30cf 2735 bb62 1535 870a 4534
000002c0: aa86 f9b5 238f f934 178d a034 678b 5bb4
000002d0: 47a2 af32 7605 d933 83ee d633 319b 1533
000002e0: 4933 cfb3 1fd0 7433 a243 8e33 87fe 3532
000002f0: 2ed2 cab4 f3c4 d133 7ec0 ed32 9755 efb2
00000300: 0a95 2a34 0c64 7c35 ee7e 2b35 79b9 b234
00000310: 92db 6ab5 c4bd 1335 7e77 0b35 f5a5 2034
00000320: 3a7c eeb5 a232 fc34 1852 9134 f557 54b4
00000330: c5ef e533 3f25 1f35 6b8d 0035 e1b7 7534
00000340: d6d3 13b5 bb62 b334 44f1 c134 86b0 9f33
00000350: fddd bdb5 96c8 d734 ccd1 3834 828b 1bb4
00000360: 8ea8 d9b3 2eea 15b5 6375 f5b4 fa13 67b4
00000370: b748 0b35 66e9 a8b4 17af b7b4 560b 94b3
00000380: f87d b735 43c0 cfb4 8f6d 2db4 36a6 1334
00000390: 3537 1934 5155 5d35 8bf6 1f35 b044 a334
000003a0: cf97 4db5 667c ff34 48e6 fd34 d635 0134
000003b0: 4bef e0b5 fee7 f634 b450 8034 70eb 45b4
000003c0: c236 0db4 5f58 49b5 3eca 16b5 b4f8 96b4
000003d0: b4e1 3a35 66de e6b4 f089 ebb4 66e5 dfb3
000003e0: 9be9 d635 a8d0 eeb4 d881 69b4 607c 3934
000003f0: cdcd d8b3 454e 15b5 3395 f4b4 93f1 65b4
-1.7067431e-07 -1.0322291e-06 -6.649839e-07 -3.501292e-07 9.626282e-07 -6.1163075e-07 -5.5127646e-07 -1.7695889e-07
1.8461361e-06 -4.6797325e-07 -2.945676e-07 2.0424604e-07 1.3191912e-07 7.5020444e-07 5.644243e-07 2.83838e-07
-6.9675326e-07 4.280545e-07 4.4087653e-07 1.03341094e-07 -1.6022115e-06 4.5029475e-07 2.1864702e-07 -1.7416653e-07
-9.560645e-08 -5.219038e-07 -4.3619733e-07 -2.0340384e-07 4.8540215e-07 -2.9173037e-07 -3.237058e-07 -6.254887e-08
1.3145691e-06 -3.7592662e-07 -1.5156789e-07 1.3072588e-07 -1.4994117e-07 -8.774554e-07 -6.148341e-07 -3.1614272e-07
8.151428e-07 -5.112941e-07 -4.934423e-07 -1.3393799e-07 1.7234318e-06 -4.6162558e-07 -2.528108e-07 1.8985357e-07
6.193896e-08 3.2630135e-07 2.947295e-07 1.237384e-07 -3.054692e-07 1.8188501e-07 2.0840994e-07 3.5999246e-08
-9.679968e-07 2.6847863e-07 9.259889e-08 -8.538934e-08 3.770819e-08 1.9193823e-07 1.8343022e-07 7.003138e-08
-1.8140153e-07 1.07079664e-07 1.2495757e-07 2.025285e-08 -6.4888866e-07 1.744052e-07 5.357736e-08 -5.1891757e-08
-7.6286355e-08 -4.098937e-07 -3.5607647e-07 -1.5585655e-07 3.8222115e-07 -2.3010575e-07 -2.5717134e-07 -4.724786e-08
1.129772e-06 -3.1442747e-07 -1.1664774e-07 1.0457498e-07 -1.9811607e-07 -1.3566903e-06 -6.743981e-07 -3.3663525e-07
1.2842435e-06 -8.53246e-07 -5.992242e-07 -3.287144e-07 2.030157e-06 -3.5599675e-07 -3.6051821e-07 1.6670074e-07
-1.160848e-07 -6.486658e-07 -5.115071e-07 -2.494931e-07 6.0233515e-07 -3.6682005e-07 -3.9073493e-07 -8.388651e-08
1.4863349e-06 -4.2215075e-07 -1.8887056e-07 1.5599304e-07 -1.6005873e-07 -9.4940975e-07 -6.4159525e-07 -3.3464468e-07
8.835554e-07 -5.5661025e-07 -5.2276283e-07 -1.522384e-07 1.7841261e-06 -4.6944888e-07 -2.730122e-07 1.9847556e-07
6.851458e-08 3.6272434e-07 3.2451675e-07 1.4026202e-07 -3.389968e-07 2.0104449e-07 2.3166814e-07 4.022656e-08
-1.0419064e-06 2.9404282e-07 1.041693e-07 -9.463306e-08 1.3564548e-07 7.7721876e-07 5.746796e-07 2.8984238e-07
-7.2155217e-07 4.4662985e-07 4.5148604e-07 1.0993953e-07 -1.6293561e-06 4.5089175e-07 2.253763e-07 -1.7714072e-07
-3.319645e-09 -1.6982797e-08 -1.42318894e-08 -2.003464e-09 1.6707409e-08 -1.1525681e-08 -9.225429e-09 -1.8322717e-09
7.123598e-08 -1.2735074e-08 -3.0562621e-09 4.605029e-09 -1.3277162e-07 -7.544993e-07 -5.679116e-07 -2.866327e-07
7.010046e-07 -4.295014e-07 -4.440644e-07 -1.036736e-07 1.6071135e-06 -4.542975e-07 -2.2052768e-07 1.7566272e-07
1.7286447e-07 1.0511999e-06 6.6864396e-07 3.5218267e-07 -9.80643e-07 6.2513845e-07 5.56505e-07 1.8350885e-07
-1.8591138e-06 4.648401e-07 2.990498e-07 -2.0446679e-07 2.0446477e-08 1.0105843e-07 1.00085366e-07 3.483291e-08
-9.6485174e-08 5.6999962e-08 6.6246926e-08 1.0593459e-08 -3.7778358e-07 9.768146e-08 2.7677967e-08 -2.7862184e-08
1.5886704e-07 9.4022903e-07 6.388717e-07 3.3290033e-07 -8.749131e-07 5.503791e-07 5.195542e-07 1.4961536e-07
-1.7768537e-06 4.6975498e-07 2.7068086e-07 -1.9776037e-07 1.0707257e-07 5.9286316e-07 4.7889506e-07 2.2884298e-07
-5.507003e-07 3.3413184e-07 3.6124595e-07 7.436124e-08 -1.4146204e-06 4.0192816e-07 1.7212659e-07 -1.4486253e-07
-1.013551e-07 -5.58476e-07 -4.5720216e-07 -2.1520819e-07 5.188735e-07 -3.1462258e-07 -3.42138e-07 -6.893849e-08
1.3671224e-06 -3.8696643e-07 -1.6151738e-07 1.3750909e-07 1.426932e-07 8.245307e-07 5.9590883e-07 3.0411093e-07
-7.658936e-07 4.7587963e-07 4.7292474e-07 1.2033647e-07 -1.6758944e-06 4.5989867e-07 2.3900577e-07 -1.8432706e-07
-1.3151569e-07 -7.500693e-07 -5.6173656e-07 -2.8120633e-07 6.961884e-07 -4.3002655e-07 -4.3872524e-07 -1.0425974e-07
1.6012231e-06 -4.4482772e-07 -2.1747053e-07 1.7274715e-07 -1.0095719e-07 -5.562072e-07 -4.5557098e-07 -2.1415171e-07

sam.image_encoder.temporal_transformer.layers.1.0.fn.to_out.0.weight f4 [12, 128]
00000000: 7194 e53c cc7c fb3c c5b8 e33c a87b dfbc
00000010: 2455 e6bc 7c49 e43c def0 f4bc a33b e43c
00000020: 0bbf edbc a20c ea3c 3027 e6bc d60f e73c
00000030: 490c e6bc 93ce f1bc 11ef ea3c c3d8 ebbc
00000040: 2c99 e7bc f572 df3c d10e e0bc e8ee dfbc
00000050: 2dd8 02bd 6e7a dfbc 2667 e53c a5bc e03c
00000060: 79b5 f7bc e1bd dfbc 20ae e63c bd91 17bd
00000070: b1f9 e83c 5196 dfbc 049a df3c 55a4 e2bc
00000080: 8435 e1bc 6737 f2bc 7e9a e5bc 3465 e0bc
00000090: 3409 e8bc 60b3 e1bc 4ffb e0bc ddf2 e0bc
000000a0: 4e80 5e3c cde7 e1bc f2c7 e53c cb52 df3c
000000b0: 3fa6 e63c 821f f0bc b97f e23c 9acc 063d
000000c0: eb87 df3c 2867 f0bc 12ee 073d a633 e03c
000000d0: c482 fb3c b0c3 e93c 229f e03c 9b66 dfbc
000000e0: 8e15 e13c f0f8 e4bc 2212 2fbd cfe5 e9bc
000000f0: d8d9 e03c 1316 e3bc 8e0c e1bc 4e83 e9bc
00000100: ad0f 31bd 614e e73c f064 e5bc fca9 313d
00000110: d913 e03c be93 eb3c ed21 e03c ffbb e2bc
00000120: bfcf e73c f86e dfbc 1c85 e2bc b6d0 e73c
00000130: cb6b df3c 8ed9 dfbc 8691 e4bc 9624 e23c
00000140: b46c e63c 46b0 e0bc d6bf e43c bdd6 f03c
00000150: 6f0e ed3c c933 df3c 9e42 e9bc 9a7d e33c
00000160: 7e8a eebc 245d e3bc c293 e03c 5eca df3c
00000170: 8d8a e73c 45b4 e23c 25f0 dfbc bf8f e43c
00000180: 6cac dfbc 7e34 e53c 6b3c ec3c 68eb e53c
00000190: eb75 e7bc 0478 e03c e543 e6bc 9d57 e83c
000001a0: 15c9 e7bc 9239 e03c 9fc2 e4bc b37b dfbc
000001b0: 88e7 de3c 630f eb3c cc32 e1bc 08fc ec3c
000001c0: cee4 32bd 5dd8 e73c 6fcc e23c df33 df3c
000001d0: 1542 e23c 2c6f e5bc 4d9f df3c 01c8 e63c
000001e0: b74a e63c 09ff e0bc cc69 e73c 0fb4 e4bc
000001f0: cebd e03c 0c07 e5bc 9406 e23c f53a e43c
00000200: db05 1c3d d33e 1a3d 29f4 1b3d 645b 1cbd
00000210: 2942 1dbd b867 1c3d 6211 7bbc de21 1c3d
00000220: d3ec 1dbd 768b 1d3d b71a 1cbd d529 1c3d
00000230: b20a 1cbd b09d 1cbd 951f 1d3d 6ceb 1bbd
00000240: 25d6 1fbd f68b 1c3d d74c 1cbd 473f 1cbd
00000250: 58f5 16bd f760 1cbd 90ec 1b3d ccb3 1c3d
00000260: cab8 1abd b1a4 1cbd ede5 1b3d 0d6a 07bd
00000270: 7c87 1c3d 9758 1cbd ed96 1c3d 46e1 1cbd
00000280: 30f3 1bbd 9c19 1ebd 5261 1bbd ca4e 1cbd
00000290: 9916 1cbd 422f 1cbd f804 1cbd a548 1cbd
000002a0: 6361 cb3c 9a2f 1cbd f014 1c3d 3e83 1c3d
000002b0: 5620 1c3d 323f 1ebd f149 1c3d 3096 153d
000002c0: 7f94 1c3d 5929 1ebd 5120 143d a65b 1c3d
000002d0: c025 1b3d 774b 1c3d 75fa 1b3d 58a1 1cbd
000002e0: c806 1c3d 45f7 1bbd 98b3 103b 28b5 86bc
000002f0: 69f4 1b3d fff2 1cbd 6813 1cbd 1222 1cbd
00000300: 3172 c13a 1a13 1c3d a719 1cbd 48dd 4aba
00000310: c2a0 1c3d 1cc1 1d3d d343 1c3d ad01 1cbd
00000320: fa02 1c3d 3786 1cbd aa26 1cbd 0317 1c3d
00000330: 7e65 1c3d 204f 1cbd eabb 1bbd 372c 1c3d
00000340: 28e4 1b3d dc08 1cbd d304 1c3d 332d 1d3d
00000350: caeb 1d3d eb6f 1c3d 0c1b 1cbd 0227 1c3d
00000360: e0f5 1cbd db16 1bbd bd01 1c3d 09a5 1c3d
00000370: 23df 1b3d 5533 1c3d 91a3 1cbd c11a 1d3d
00000380: c449 1cbd b710 1c3d 57e8 1d3d cb26 1c3d
00000390: 1268 1cbd e5a8 1c3d 1116 1cbd e7ee 1b3d
000003a0: f799 1cbd 7a73 1c3d 8dcd 1bbd 2a8b 1cbd
000003b0: 108f 1c3d 02b3 1d3d ae42 1cbd 4510 1c3d
000003c0: c70b 91b9 5258 1f3d 5b2a 1c3d d679 1c3d
000003d0: 762f 1c3d a922 1cbd 1f66 1c3d acde 1b3d
000003e0: b6e4 1a3d 1223 1cbd 081f 1c3d 2a06 1cbd
000003f0: f0ed 1b3d 3f18 1cbd f3d8 1c3d 86fd 1b3d
0.028024884 0.030699156 0.027798066 -0.027280644 -0.02811677 0.027867071 -0.02990001 0.027860468
-0.02902176 0.028570477 -0.028094858 0.028205793 -0.02808203 -0.029517448 0.028678449 -0.028789883
-0.02827128 0.027276495 -0.027350815 -0.027335599 -0.031944443 -0.027280059 0.028003287 0.027433703
-0.0302379 -0.027312221 0.028159201 -0.03700422 0.028439375 -0.027293356 0.02729512 -0.02766625
-0.027491339 -0.029567434 -0.02802777 -0.027392007 -0.0283247 -0.027551353 -0.027463583 -0.027459556
0.013580395 -0.027576352 0.028049443 0.027261158 0.028155444 -0.0293119 0.027648794 0.032909967
0.02728649 -0.029346064 0.033186026 0.027368378 0.030702002 0.028535694 0.02741963 -0.027270606
0.027476098 -0.027950734 -0.042741902 -0.028551964 0.027447626 -0.027720487 -0.027471807 -0.028504994
-0.04322784 0.028235616 -0.028002232 0.043375 0.027353214 0.028756972 0.027359927 -0.027677534
0.028297303 -0.027274594 -0.027651362 0.028297763 0.02727308 -0.027325418 -0.027901422 0.027605336
0.028128006 -0.027427804 0.027923506 0.02939927 0.028937547 0.027246373 -0.028474148 0.027769852
-0.029118773 -0.027754374 0.027414206 0.027318176 0.028264308 0.02767385 -0.02733619 0.027900575
-0.027303897 0.027979132 0.028837403 0.028066352 -0.02825447 0.027400978 -0.028108547 0.02836209
-0.028294126 0.027371202 -0.027924834 -0.027280664 0.027210012 0.02869386 -0.027490042 0.028928772
-0.043675236 0.028301412 0.027685372 0.027246414 0.027619401 -0.028007112 0.02729764 0.028171541
0.028111799 -0.02746536 0.02824869 -0.02791789 0.027434256 -0.027957462 0.027591027 0.027860144
0.03809152 0.03765757 0.038074646 -0.038173094 -0.038393173 0.03818485 -0.015323969 0.038118236
-0.03855593 0.03846308 -0.038111415 0.03812583 -0.038096137 -0.03823632 0.038360197 -0.038066313
-0.039022584 0.038219415 -0.038159218 -0.038146283 -0.03685507 -0.03817841 0.0380674 0.038257405
-0.037773885 -0.038243 0.03806107 -0.033060122 0.038215145 -0.038170423 0.03822987 -0.038300775
-0.03807372 -0.03859864 -0.03793461 -0.038161077 -0.03810749 -0.038131006 -0.038090676 -0.038155217
0.024826711 -0.038131334 0.038105905 0.0382111 0.038116775 -0.038634486 0.038156454 0.036520183
0.038227554 -0.03861365 0.03616363 0.03817334 0.037877798 0.038157906 0.03808065 -0.038239807
0.038092405 -0.03807761 0.0022079702 -0.016443804 0.038074885 -0.038317677 -0.038104445 -0.03811843
0.0014758763 0.038104154 -0.0381104 -0.0007738662 0.038239248 0.03851424 0.03815062 -0.038087536
0.038088776 -0.038213935 -0.03812281 0.038107883 0.038182728 -0.038161397 -0.038021006 0.038128104
0.038059384 -0.038094386 0.03809054 0.038373183 0.038554944 0.03819267 -0.03811173 0.03812314
-0.038320422 -0.037863594 0.038087595 0.038243327 0.038054597 0.03813489 -0.038241927 0.038355593
-0.038156286 0.038101878 0.038551655 0.038122933 -0.038185187 0.038247008 -0.03810698 0.038069632
-0.03823277 0.038196065 -0.038037825 -0.038218655 0.038222373 0.038500793 -0.03814953 0.038101453
-0.0002766533 0.03890259 0.03812633 0.03820213 0.0381312 -0.038118992 0.038183328 0.038054153
0.037815772 -0.038119383 0.03811553 -0.038091816 0.03806871 -0.03810906 0.038292836 0.038083576

sam.image_encoder.temporal_transformer.layers.1.0.fn.to_out.0.bias f4 [12]
00000000: 4b60 523d 14f9 66ba 0bcc f2bb e7aa 3a3d
00000010: 6cdc 433d e358 64bd 1a55 1e3d 4039 7abd
00000020: 0039 6dbd f700 66bc 4116 283d 7986 963d
0.051361363 -0.0008810919 -0.0074095777 0.04557314 0.047817633 -0.05574883 0.038655378 -0.061089754
-0.057915688 -0.014038316 0.041036848 0.073498674

sam.image_encoder.temporal_transformer.layers.1.1.norm.weight f4 [12]
00000000: cdc0 d0bc c525 4dbd b126 a4bc febd 4c3c
00000010: afcf 823c 63c9 afb9 604b cbb9 5e15 ac3c
00000020: f0e0 66bc 8c16 013c 8edd 20bc 65f5 dc3c
-0.02548256 -0.050084848 -0.02003798 0.01249647 0.015968172 -0.00033528646 -0.00038775336 0.021006282
-0.014091715 0.007878911 -0.009818448 0.026972482

sam.image_encoder.temporal_transformer.layers.1.1.norm.bias f4 [12]
00000000: 12b9 acbc b0b4 853c 8879 27bc 5714 823c
00000010: 24ea 963b 8292 fe3b e09b 8f3c b241 60bc
00000020: fc8e a93c e262 41bc 180d 8ebc 8372 5a3c
-0.021084342 0.01632151 -0.010221846 0.01587884 0.0046055485 0.00776893 0.017530382 -0.013687538
0.020698063 -0.011803361 -0.017340228 0.013332966
