checkpoints/transformer_cnn_13_with_temporalembedding/epoch_599_custom.pth (torch, 154191 bytes, 50 tensors)

sam.image_encoder.temporal_pos_embedding.weight f4 [12, 366]
0.024853619 -1.0071277e-13 -2.4655066e-13 0.017041326 -4.5345303e-13 0.0027747117 -4.601279e-13 -3.27091e-14
1.784348e-13 -1.7302354e-13 0.055734016 6.4742245e-14 2.821677e-13 3.2934e-13 -2.2660237e-13 -0.01927248
-2.2208281e-13 0.07743637 -2.6819478e-13 2.3743957e-13 1.0391727e-13 -2.0088078e-13 0.01927124 1.3280447e-13
4.789267e-13 0.0022302344 -4.9567e-14 -2.4915166e-14 0.07936925 -3.5675784e-13 -0.0031797886 -1.7008687e-13
2.969949e-13 -1.831075e-13 2.5381967e-14 0.006810628 3.5275854e-13 -7.5447176e-14 4.682817e-13 -4.3428306e-13
-9.1563184e-14 -5.1185526e-13 4.2522487e-14 -0.23866798 -2.0778873e-13 0.022128325 -8.3210355e-14 0.0053934148
-0.05447084 3.1649043e-13 0.10695953 4.0944567e-13 0.09423956 -0.124695376 4.2596758e-13 -0.0011206432
-4.0033233e-13 0.0024389434 0.20380335 -5.640604e-14 -0.1036521 2.9416248e-13 1.6466596e-13 -3.7953782e-13
-1.5420454e-13 -1.2075646e-13 3.1241104e-13 -1.8621663e-13 -2.1476096e-13 -8.253113e-14 0.07613051 -1.2638539e-13
0.17226474 4.5735865e-13 2.7320054e-13 0.14387155 -3.2026842e-13 1.7857963e-14 0.15201159 -3.6837747e-13
0.0006520197 2.147046e-13 -3.3108962e-13 0.0071282075 -3.8708134e-13 0.007870448 2.7669165e-13 0.18395399
-0.08847371 1.8195992e-13 -0.004651124 1.3603169e-13 -4.199219e-13 -2.748464e-13 2.3290977e-13 -0.0025692484
-1.0766834e-13 2.2573131e-13 2.6641368e-13 3.1916354e-14 1.4880221e-13 2.2834143e-13 -0.004749033 0.14078555
3.9199178e-13 -0.00066996424 2.3776518e-13 -2.243825e-13 0.17055032 -5.066485e-13 0.02905605 -1.9694798e-13
-0.02254214 -7.218295e-14 4.854458e-13 0.0072753625 -4.7992626e-14 0.046717644 2.4928212e-13 -4.0960924e-14
-0.0128858145 1.6732252e-13 4.914214e-13 0.017470136 -1.10861597e-13 -0.03742682 -4.1799179e-13 -4.3947563e-13
3.8320123e-13 -1.817609e-13 0.082494356 4.5888613e-14 -0.03982669 0.1432657 -1.096296e-13 -0.030269925
2.3543607e-13 -1.4841063e-13 6.314654e-14 3.930023e-13 -4.4976005e-13 3.2972358e-13 -1.5426862e-13 0.023795387
2.4426517e-13 0.11396122 -7.7544945e-14 -0.062246807 1.8474618e-13 -1.898053e-13 0.12452839 4.0481125e-13
-0.04696958 -0.022875456 -3.3054608e-13 -0.07545541 9.175763e-14 0.13867167 -0.017516863 2.8415345e-13
3.5382686e-13 2.2538682e-13 2.1573546e-13 0.018462991 -4.5303594e-13 0.036152598 -3.1970463e-13 -3.3233954e-13
-0.07467276 1.5890341e-13 0.16667661 -3.9102318e-13 -0.08689303 3.85723e-13 2.4412075e-13 0.16325028
-2.732919e-13 -0.07640716 -0.04832449 -2.4851545e-14 0.16629285 4.0636095e-13 0.09143076 0.1533238
-2.8189256e-13 0.10122075 6.751476e-14 -0.010583373 0.08297225 -2.3451846e-13 -0.0017566159 -3.4828612e-13
-0.017603364 0.010599124 2.2147022e-13 -0.17639741 1.2484027e-13 -0.07896483 -0.06150542 4.0244446e-13
0.01540208 3.7056689e-13 -2.2838908e-13 0.003519162 5.112546e-13 -0.023853596 2.9440854e-13 1.9105475e-13
-2.5239126e-13 6.1262357e-15 -0.083343364 -1.3412742e-13 0.15604034 -0.038346805 -4.756012e-13 0.11957941
-3.0714778e-13 6.26166e-14 -9.5146527e-14 1.10612745e-13 -0.005818053 -3.3603182e-13 0.12134506 0.09392282
-3.0820875e-13 0.09162984 1.2633068e-13 0.004208852 -4.704924e-13 -4.913457e-13 0.08597689 -4.788586e-13
0.075305596 0.051180813 2.491738e-13 -0.053768292 3.6936792e-13 0.02270227 -0.034204926 -3.0123704e-13
-0.061511677 -3.4028466e-13 -0.060493134 -0.084956825 -3.4974156e-14 -0.13396129 -1.1947339e-13 0.014010588
0.07176822 -5.021099e-13 0.1396486 -3.146012e-13 3.1282518e-13 -0.043451443 -1.7118511e-13 0.00084217807
00000000: d199 cb3c f6c8 e2a9 b2cb 8aaa 409a 8b3c
00000010: 7845 ffaa f0d7 353b b683 01ab 064f 13a9
00000020: 54e6 482a a4ce 42aa 5a49 643d 5dc9 9129
00000030: a7d8 9e2a e566 b92a b021 7faa 52e1 9dbc
00000040: 030b 7aaa f696 9e3d f1fa 96aa a6aa 852a
00000050: 3a00 ea29 f12b 62aa b8de 9d3c 4886 152a
00000060: 4ece 062b 2029 123b dc3a 5fa9 766a e0a8
00000070: 588c a23d 39d6 c8aa 0064 50bb 3480 3faa
00000080: 7a31 a72a 2529 4eaa d59e e428 b02b df3b
00000090: dd95 c62a 56e4 a9a9 41cf 032b c97a f4aa
000000a0: 952e cea9 0f13 10ab 1781 3f29 6165 74be
000000b0: 06f3 69aa 7646 b53c 815f bba9 3ebb b03b
000000c0: d11c 5fbd 142b b22a 990d db3d 577f e62a
000000d0: ac00 c13d 4a60 ffbd 66cc ef2a 8ce2 92ba
000000e0: f85d e1aa aed6 1f3b d3b1 503e bd07 7ea9
000000f0: 8d47 d4bd 4899 a52a bb65 392a 2aa9 d5aa
00000100: 6f9e 2daa aef5 07aa 2ddf af2a 4aa9 51aa
00000110: a2cc 71aa f5d7 b9a9 50ea 9b3d 1c4c 0eaa
00000120: 2b66 303e 2abc 002b 59cc 992a 1053 133e
00000130: 8b4b b4aa a9d9 a028 eda8 1b3e ca60 cfaa
00000140: 4dec 2a3a 63bc 712a 0b63 baaa bd93 e93b
00000150: 4de8 d9aa 0df3 003c 78c3 9b2a 6f5e 3c3e
00000160: b431 b5bd 60de 4c2a 7568 98bb 7728 192a
00000170: 2065 ecaa 8ab9 9aaa d61d 832a d660 28bb
00000180: 9372 f2a9 9f26 7e2a 42fa 952a 0dbd 0f29
00000190: 5189 272a 788b 802a c79d 9bbb 162a 103e
000001a0: f8ab dc2a 8aa0 2fba 93d9 852a daa1 7caa
000001b0: bea4 2e3e df9b 0eab f406 ee3c 64be 5daa
000001c0: 4baa b8bc a38a a2a9 0ea4 082b 2a66 ee3b
000001d0: bb23 58a9 005b 3f3d 5755 8c2a bb78 38a9
000001e0: 061f 53bc 6f63 3c2a a552 0a2b 881d 8f3c
000001f0: 5ca3 f9a9 dd4c 19bd f74e ebaa 1d67 f7aa
00000200: 1eb9 d72a 03a5 4caa cdf2 a83d f8a9 4e29
00000210: 5021 23bd 3eb4 123e 29dd f6a9 a2f8 f7bc
00000220: ea89 842a 7418 27aa 8131 8e29 9a3d dd2a
00000230: 4131 fdaa 2d9e b92a e7b0 2daa 8bee c23c
00000240: 5282 892a 8064 e93d 9e9d aea9 82f6 7ebd
00000250: 7601 502a a7b3 55aa be08 ff3d 73e3 e32a
00000260: 2d63 40bd 4f65 bbbc b614 baaa 5e88 9abd
00000270: ac9e ce29 f2ff 0d3e 867f 8fbc d4f6 9f2a
00000280: d32f c72a 54c3 7d2a 83e5 722a b33f 973c
00000290: 5c09 ffaa bf14 143d 4bfa b3aa 2d17 bbaa
000002a0: 08ee 98bd cae8 322a 46ad 2a3e 6120 dcaa
000002b0: f9f4 b1bd 8b24 d92a 826d 892a 152b 273e
000002c0: 83d9 99aa 5b7b 9cbd e7ef 45bd c3d7 dfa8
000002d0: ac48 2a3e c9c2 e42a 0d40 bb3d ea00 1d3e
000002e0: 00b1 9eaa d34c cf3d 9c07 9829 e265 2dbc
000002f0: 5bed a93d ac05 84aa 403e e6ba 5211 c4aa
00000300: ee34 90bc f3a7 2d3c 725a 792a 86a1 34be
00000310: c28e 0c2a 50b8 a1bd 1bed 7bbd 5c8e e22a
00000320: 0159 7c3c 519c d02a 5692 80aa bea1 663b
00000330: c7e7 0f2b 9e68 c3bc bebc a52a c81b 572a
00000340: 6a15 8eaa 8db8 dc27 edaf aabd 9903 17aa
00000350: 0ac9 1f3e 8a11 1dbd aede 05ab 0de6 f43d
00000360: a9e8 acaa 0300 8d29 3d40 d6a9 e813 f929
00000370: 5ea5 bebb 4a2b bdaa c283 f83d 9c5a c03d
00000380: 9081 adaa 6da8 bb3d 573c 0e2a 69ea 893b
00000390: 8d6e 04ab 304d 0aab a714 b03d 66c9 06ab
000003a0: d239 9a3d f9a2 513d bb45 8c2a 243c 5cbd
000003b0: 87ef cf2a 1cfa b93c 771a 0cbd d594 a9aa
000003c0: abf3 7bbd 3090 bfaa a6c7 77bd d8fd adbd
000003d0: 7582 1da9 262d 09be dc83 06aa aa8c 653c
000003e0: 37fb 923d d554 0dab 0b00 0f3e d01a b1aa
000003f0: dc1a b02a 24fa 31bd c0bc 40aa 9dc5 5c3a

sam.image_encoder.temporal_pos_embedding.bias f4 [12]
0.0027765534 -0.0013843749 0.009156527 0.0075808233 -0.00058900495 -0.018191857 0.0054707467 0.0054705646
-0.00484664 -0.009964616 0.005621382 -0.0009745252
00000000: d6f6 353b ea73 b5ba 4205 163c 8e68 f83b
00000010: 7467 1aba 1707 95bc f343 b33b 6c42 b33b
00000020: 90d0 9ebb a142 23bc 9233 b83b 4777 7fba

sam.image_encoder.temporal_transformer.layers.0.0.norm.weight f4 [12]
3.9744505e-10 -5.4594308e-11 1.0200289e-11 1.8401497e-10 -6.728381e-11 1.2427652e-11 2.9639889e-12 -1.6327634e-11
-3.9322587e-11 4.909233e-10 5.6245056e-12 3.1991848e-10
00000000: 6b7f da2f ba1b 70ae 0572 332d 9c53 4a2f
00000010: 6bf5 93ae 2ba1 5a2d 7a92 502c 909e 8fad
00000020: 4cf1 2cae a8f1 0630 0be5 c52c 86e0 af2f

sam.image_encoder.temporal_transformer.layers.0.0.norm.bias f4 [12]
-2.1762277e-10 -1.3347048e-10 2.8511069e-11 6.016329e-11 -1.0113841e-11 -7.9836485e-11 -4.9839347e-12 8.487109e-11
4.4863238e-11 5.4029975e-10 3.526092e-11 1.2744877e-10
00000000: 5d47 6faf 9ac0 12af 38c9 fa2d ec4c 842e
00000010: b1ec 31ad f28f afae 4b5b afac 2da2 ba2e
00000020: 844f 452e 3784 1430 4414 1b2e a421 0c2f

sam.image_encoder.temporal_transformer.layers.0.0.fn.to_qkv.weight f4 [384, 12]
-3.997524e-13 -8.5698104e-13 -3.4398103e-13 -3.967361e-13 -1.2689177e-12 -1.0567519e-12 -2.219711e-12 -1.6862304e-12
-2.252384e-12 -2.065852e-12 -2.0966865e-12 -6.4276774e-13 -1.3272521e-12 2.0092862e-12 -2.921026e-12 -2.28051e-12
-1.8666194e-13 1.4698926e-13 -9.637653e-13 -1.8054276e-12 -2.1483705e-12 1.1484596e-13 -2.1509545e-12 -1.9598047e-12
-1.5388939e-12 -2.3105086e-12 7.9095395e-13 1.5793039e-12 1.0862559e-12 1.041982e-12 2.5457863e-12 -3.354378e-13
-8.079688e-13 -6.6971636e-14 1.0629778e-12 -2.176326e-12 1.6786206e-13 -6.647541e-13 1.6502804e-12 -3.1088708e-12
1.536115e-12 3.9236585e-13 -7.965836e-13 -2.1202538e-12 2.2784047e-12 6.559762e-13 -6.1661516e-13 -1.1569141e-12
2.1771261e-13 -2.1805416e-12 -5.202429e-13 -1.315874e-12 -2.1987106e-13 -2.4928692e-12 -6.775582e-13 6.320604e-13
-2.0607782e-12 6.9762203e-13 4.617036e-13 2.6947522e-12 -1.72022e-12 1.1048297e-12 2.2296403e-12 -2.6034819e-12
3.4019762e-13 1.5624651e-12 1.8738823e-12 1.5519662e-12 6.6462797e-13 -1.5039261e-12 1.4621088e-12 -2.315589e-12
-9.830306e-14 2.571676e-13 2.5925445e-12 -1.4297784e-12 -1.0257485e-12 5.7406884e-13 -1.9640851e-12 1.1787763e-12
1.9960997e-12 -5.99366e-13 1.6144533e-12 9.293177e-13 -3.467136e-15 2.9146462e-12 -2.053456e-12 1.3145618e-12
-9.0869337e-13 -2.4130216e-12 1.2176898e-13 -2.4682446e-12 1.6612008e-12 3.9582755e-13 4.990607e-13 -8.5441604e-13
-1.9631033e-12 2.86827e-12 -2.0203839e-12 -1.4785659e-12 2.487337e-12 -1.0476236e-12 -5.8906395e-13 -3.2021105e-12
-1.7636819e-12 -4.4603175e-13 -1.9417456e-12 -1.0349562e-12 2.5967993e-12 1.1167482e-12 3.9288923e-13 1.1232269e-12
2.6885965e-12 -1.10680955e-13 -2.4853342e-12 -3.1191523e-12 -1.990135e-12 1.1054942e-12 1.5337581e-12 1.0700009e-12
-1.0290811e-12 5.9779964e-13 3.224162e-13 -1.0946325e-12 4.4082075e-13 9.40456e-13 -2.1460032e-12 8.045209e-13
-3.2707566e-13 -7.2780204e-13 -1.7165821e-12 -1.5265001e-12 -2.3751292e-12 2.5974331e-12 -2.660644e-13 1.8865155e-12
-1.9320064e-12 -1.9582346e-12 8.0345274e-13 -2.7409936e-12 2.5543684e-12 2.008388e-12 -3.0216229e-12 1.2497484e-12
-1.5074133e-12 1.6582274e-12 6.2534813e-13 1.1583549e-12 2.8214754e-13 2.0964435e-12 2.0147776e-13 -1.9336392e-12
2.5889774e-12 6.470676e-14 -6.180911e-13 7.8621647e-13 -2.4060023e-12 -6.566975e-14 4.67586e-13 2.631547e-14
1.9358144e-12 -3.6734285e-13 -3.2471093e-13 2.2952725e-12 1.0697491e-12 -8.722107e-13 2.449542e-12 7.8341294e-13
-2.3847107e-12 1.9967242e-12 -1.9142726e-12 -5.3114143e-13 1.6911339e-12 -7.908762e-13 1.5876168e-13 -6.437318e-13
2.9294583e-12 -1.6847077e-12 1.8358535e-13 -2.025484e-12 1.7049197e-13 -1.9729982e-13 -1.1363469e-12 1.6078921e-12
2.6082075e-12 2.0136395e-12 -8.3469353e-13 -8.8307904e-13 -1.9651156e-12 1.4999894e-12 2.4841396e-12 -2.885368e-12
1.699231e-13 1.5242179e-12 -2.9943279e-12 -2.047378e-12 -2.0141445e-12 1.6236193e-12 -1.781412e-12 1.7295338e-13
-9.725511e-13 -1.2996457e-12 -1.1995873e-12 -2.3255456e-13 2.6096998e-12 -1.4783779e-12 1.7980504e-12 2.5922385e-12
-1.1331328e-12 -1.9657058e-12 9.41933e-13 -2.6689612e-12 -6.5399736e-13 7.6909356e-13 -1.0814113e-12 1.3173614e-12
2.5594065e-12 -1.1678684e-12 2.9263477e-12 5.6259847e-13 -1.5911462e-12 -1.6538485e-12 2.3670165e-12 -8.0598654e-14
-1.6499277e-12 4.1390673e-13 -5.0251204e-13 -2.763518e-12 -1.2185088e-12 1.1264077e-12 1.2411517e-12 2.1588061e-12
-1.970561e-12 1.6092517e-12 -2.8070285e-12 1.7468419e-12 1.8714687e-12 -2.9163727e-13 -9.25987e-13 3.6213814e-13
1.2928257e-12 -2.1021962e-12 -1.347573e-12 1.4575263e-12 2.1962419e-12 2.4398023e-12 8.069142e-13 1.3265182e-12
-7.9016253e-13 -5.9867116e-14 -2.5195178e-12 -2.5049017e-13 1.9302051e-12 2.5152493e-12 7.461661e-13 9.602615e-13
00000000: 640a e1aa fe37 71ab e4a4 c1aa b357 dfaa
00000010: 9495 b2ab 80b9 94ab c232 1cac da50 edab
00000020: 587f 1eac 155f 11ac 8c8a 13ac 4cec 34ab
00000030: 4ccb baab 1564 0d2c 878c 4dac 047a 20ac
00000040: a429 52aa c57e 252a 4ea3 87ab 6217 feab
00000050: 9a2d 17ac 184e 012a 275c 17ac b4e8 09ac
00000060: 7f94 d8ab 6c96 22ac 3da2 5e2b 6b44 de2b
00000070: 7ee0 982b 5ca5 922b cf24 332c aed5 bcaa
00000080: 4a6c 63ab 85ce 96a9 d099 952b 3425 19ac
00000090: f2fe 3c2a 951c 3bab 9e41 e82b 70c4 5aac
000000a0: 6030 d82b e1e1 dc2a e637 60ab 1933 15ac
000000b0: 1754 202c 11a4 382b ce8f 2dab 39d2 a2ab
000000c0: 631f 752a 2571 19ac 746f 12ab 5b31 b9ab
000000d0: 858d 77aa 8a6b 2fac 37b7 3eab c0e8 312b
000000e0: ae03 11ac f75c 442b 40f5 012b 57a0 3d2c
000000f0: 7519 f2ab af7d 9b2b a1e5 1c2c 2934 37ac
00000100: a583 bf2a bde5 db2b dddc 032c 7a6b da2b
00000110: 7e13 3b2b a6a8 d3ab 05c6 cd2b f1f1 22ac
00000120: db5b dda9 c2c5 902a 216f 362c 3239 c9ab
00000130: 7c5c 90ab 0596 212b d035 0aac e4e5 a52b
00000140: 8976 0c2c dfb4 28ab cf36 e32b 33ca 822b
00000150: 5fd5 79a7 9919 4d2c c67f 10ac 1502 b92b
00000160: 42c6 7fab 22cd 29ac 8519 092a f1af 2dac
00000170: 11cb e92b c3d4 de2a 1d79 0c2b 2a7f 70ab
00000180: 2024 0aac 29d6 492c 002c 0eac f316 d0ab
00000190: e107 2f2c 9e70 93ab 88ce 25ab 1854 61ac
000001a0: 5637 f8ab f317 fbaa 61a3 08ac 3aa8 91ab
000001b0: c7bb 362c 182b 9d2b 4e2d dd2a 8414 9e2b
000001c0: 7331 3d2c 3a3b f9a9 cde3 2eac a77d 5bac
000001d0: 160b 0cac a095 9b2b 76db d72b d896 962b
000001e0: 8ed4 90ab 0144 282b 1281 b52a 4b0e 9aab
000001f0: f728 f82a 805b 842b f502 17ac d773 622b
00000200: 9220 b8aa aadb 4cab 6396 f1ab f6d5 d6ab
00000210: 8622 27ac 32c7 362c ecc7 95aa 71c0 042c
00000220: eff3 07ac 6bcc 09ac df26 622b 5ae1 40ac
00000230: 69bf 332c e753 0d2c b8a0 54ac eee2 af2b
00000240: 4a26 d4ab f05f e92b 1505 302b 2206 a32b
00000250: bfd5 9e2a 2b86 132c 03d8 622a 5911 08ac
00000260: df2e 362c e8b4 9129 28fa 2dab de4c 5d2b
00000270: af4e 29ac 09e0 93a9 1f9d 032b 5807 ed28
00000280: 8838 082c afcb ceaa c7cb b6aa f483 212c
00000290: c68d 962b 6881 75ab 075f 2c2c da82 5c2b
000002a0: 21cf 27ac c981 0c2c 78b4 06ac c680 15ab
000002b0: 8501 ee2b a39c 5eab f0bf 322a c431 35ab
000002c0: 6e24 4e2c fe19 edab e0b2 4e2a e087 0eac
000002d0: f7f4 3f2a cd23 5eaa 36ed 9fab 6b4a e22b
000002e0: 4a89 372c 81b2 0d2c 02f2 6aab 8d90 78ab
000002f0: 6048 0aac d01a d32b 48ce 2e2c 2b0a 4bac
00000300: 0051 3f2a bd83 d62b 04b5 52ac 4812 10ac
00000310: 9abb 0dac 0d81 e42b 22b6 faab 6bba 422a
00000320: d9df 88ab ace8 b6ab b0d3 a8ab a5ea 82aa
00000330: 2ca4 372c 2d10 d0ab 980d fd2b 9e69 362c
00000340: 6979 9fab 0253 0aac b690 842b bbcf 3bac
00000350: 7a15 38ab 087b 582b f331 98ab f266 b92b
00000360: 2b1a 342c e55c a4ab 65ec 4d2c 7e5b 1e2b
00000370: 15ef dfab 2cc2 e8ab 6190 262c f67d b5a9
00000380: e934 e8ab 3f02 e92a cf71 0dab 1d77 42ac
00000390: 687d abab 1d87 9e2b 34ad ae2b 98e9 172c
000003a0: 79aa 0aac 677b e22b ee86 45ac 9dd8 f52b
000003b0: 62b1 032c 5c2d a4aa 3352 82ab 9bdd cb2a
000003c0: f4f2 b52b cded 13ac 6fa7 bdab eb20 cd2b
000003d0: fa8b 1a2c 92af 2b2c 4c20 632b dbb0 ba2b
000003e0: 3669 5eab 0bcf 86a9 994b 31ac 7003 8daa
000003f0: 7cd3 072c b4fe 302c ef06 522b 1125 872b

sam.image_encoder.temporal_transformer.layers.0.0.fn.to_out.0.weight f4 [12, 128]
-7.342408e-13 2.086555e-12 -4.2676634e-13 1.3733445e-13 1.2038205e-15 -6.0719106e-13 -3.8631782e-13 -1.2283209e-12
8.6599326e-13 2.1365203e-12 -2.971717e-12 -5.19835e-13 9.952193e-13 5.03838e-13 -9.106498e-13 -2.2876097e-13
1.2562423e-12 -6.1066573e-12 -1.6178749e-12 -5.033959e-13 -7.538077e-13 -5.3425244e-13 7.626137e-13 -1.2788971e-13
2.7841137e-12 -1.0331583e-12 -1.1353801e-12 -2.643395e-12 2.1239772e-12 -8.5561864e-15 2.4561885e-13 -3.3624243e-12
-1.086044e-12 -5.160149e-12 -7.746234e-12 -9.958505e-13 7.5935005e-13 7.778835e-14 -9.936277e-13 -5.2942356e-13
9.184219e-12 -5.0706336e-12 5.475057e-13 1.1908765e-12 2.5130867e-12 -1.6555058e-12 -4.3341437e-13 -1.473595e-12
3.2021603e-12 6.2557967e-13 5.4340447e-12 3.78081e-12 -1.0005641e-12 -1.5957499e-12 5.2209853e-13 -3.639117e-12
1.2155397e-12 3.4652723e-12 -1.4771409e-12 -1.4687964e-12 -3.1538678e-12 5.545845e-13 -6.135668e-13 3.3143657e-12
1.4491436e-12 -6.7043387e-13 -3.5933305e-12 2.768821e-12 9.652121e-13 -7.035698e-13 -2.904364e-13 -6.9427856e-13
1.4965184e-12 -1.653809e-12 2.6730723e-12 -2.4769648e-13 -2.7594363e-12 3.0458756e-12 -6.060748e-13 -1.1608825e-12
1.6050454e-12 -7.7961895e-14 7.38418e-13 -7.100734e-12 -1.8583386e-12 5.6994917e-12 -5.345823e-13 -9.349172e-13
-1.03853686e-13 1.5999944e-12 2.0519912e-12 -8.070499e-13 1.5156447e-12 -2.9971902e-12 3.8795187e-12 1.0339e-12
-6.430115e-13 -4.60663e-13 1.5253412e-12 -7.6550056e-13 2.9440595e-12 -2.4785022e-12 -1.4423529e-12 9.814786e-13
1.5440084e-13 -2.6107905e-12 3.58874e-13 -2.3993323e-12 -7.407086e-13 7.036136e-13 2.1135357e-12 1.4012233e-12
6.808601e-12 5.9490656e-13 1.6850609e-12 -4.5209393e-15 1.3718603e-12 3.0370897e-12 -3.172575e-12 4.843514e-13
1.0975741e-12 1.0211005e-12 -1.723456e-12 -1.0886106e-12 3.1794549e-13 2.1847223e-13 -5.6353506e-13 7.7099855e-13
-6.801714e-13 5.074925e-12 -7.240588e-14 1.4401016e-12 1.8343207e-13 -2.9847396e-12 1.9409654e-12 1.0336606e-11
-5.8101844e-12 4.590372e-12 7.273724e-12 1.24126456e-11 -3.3577815e-12 -1.2352366e-12 7.446727e-13 -1.6630554e-13
-6.48688e-13 -6.609361e-12 4.4431845e-12 4.4292185e-13 -2.3036434e-12 9.3617497e-14 -4.690908e-12 -6.255306e-13
-7.522192e-12 -4.212591e-12 -6.252508e-12 -1.4848156e-11 -7.665778e-13 2.2272685e-12 -3.449405e-12 1.2404801e-11
-2.6532192e-12 1.0898016e-11 1.4414054e-11 -2.0958704e-12 -1.6518823e-12 -6.6965765e-12 -4.7165063e-12 5.4598134e-14
-1.9737049e-11 1.27933705e-11 -2.4457263e-12 -1.0804588e-11 -1.4025477e-12 8.1986485e-13 -1.0314628e-12 8.379627e-12
-1.6612052e-11 -7.7513005e-12 -7.717111e-12 1.2663034e-11 4.32386e-12 1.1095881e-12 7.2796396e-12 -1.0261338e-12
-9.307049e-12 -2.389802e-11 -3.958478e-12 -5.809559e-12 -1.1662496e-11 -8.518846e-13 1.885564e-11 8.308364e-12
-6.461836e-12 9.874842e-13 8.913832e-12 -1.776726e-11 8.456996e-12 6.2617207e-12 -8.454313e-13 -3.713296e-12
-3.9894216e-12 6.0643296e-12 1.6789051e-12 -2.5594856e-13 1.1010969e-11 -8.122542e-12 -2.5633276e-12 3.2246638e-12
-6.021327e-12 -3.9141403e-12 -1.2575882e-12 2.3579362e-11 -5.7024793e-12 -2.1381973e-11 9.929728e-12 -3.3754146e-13
-4.891208e-12 -1.3970488e-12 5.506086e-12 -1.6269597e-12 8.511331e-12 6.888255e-12 -1.7481051e-11 -1.1548843e-12
-5.397022e-12 5.488198e-12 9.12249e-12 -7.378347e-12 1.5604682e-11 1.1712069e-11 1.752786e-12 2.3070322e-12
3.072333e-12 -3.5790429e-12 6.0516687e-12 -8.421388e-12 3.3385343e-12 -7.4124465e-12 -6.9799604e-12 1.4311563e-12
-2.0320424e-11 8.970826e-12 1.39572425e-11 -2.7057948e-12 1.8132381e-13 -1.4189903e-11 -9.576027e-12 -2.7757104e-12
8.0296495e-13 1.6608994e-12 2.9027872e-12 2.3182756e-12 9.276775e-13 5.6552493e-12 4.3534894e-12 6.4226406e-12
00000000: a0ab 4eab 09d4 122c 833f f0aa f69f 1a2a
00000010: 237d ad26 bae8 2aab 447a d9aa edde acab
00000020: 64c1 732b 2158 162c b21d 51ac 0f52 12ab
00000030: 8e10 8c2b 5bd1 0d2b 9e29 80ab eec7 80aa
00000040: e6cc b02b e1db d6ac 16b2 e3ab 7fb1 0dab
00000050: 922d 54ab f260 16ab 1ca8 562b b3fd 0faa
00000060: 22ea 432c 7367 91ab 61ca 9fab 2c03 3aac
00000070: 2c76 152c 7222 1aa8 6845 8a2a 0d9c 6cac
00000080: dcd8 98ab 7d8e b5ac f045 08ad 4c27 8cab
00000090: f0bc 552b ee29 af29 36d7 8bab fd04 15ab
000000a0: 0c92 212d 3568 b2ac f21b 1a2b d999 a72b
000000b0: bfd7 302c e2fd e8ab 98fd f3aa db63 cfab
000000c0: fe54 612c c415 302b 8631 bf2c 8206 852c
000000d0: 1fd1 8cab f394 e0ab 2af5 122b 400a 80ac
000000e0: 6f12 ab2b ccd8 732c 9ce3 cfab f8b6 ceab
000000f0: 08ef 5dac 061a 1c2b 26b4 2cab 4e3a 692c
00000100: e7f2 cb2b dab5 3cab b0db 7cac a5d6 422c
00000110: 6ed7 872b 8c09 46ab 4c80 a3aa 0b6c 43ab
00000120: c29d d22b c0c0 e8ab ca19 3c2c d370 8baa
00000130: 962d 42ac 9e55 562c 4b98 2aab 3361 a3ab
00000140: dbe3 e12b f98d afa9 a0d8 4f2b bad5 f9ac
00000150: dac4 02ac 7588 c82c b778 16ab f193 83ab
00000160: 93db e9a9 e02d e12b 6365 102c 132a 63ab
00000170: db4e d52b 94e8 52ac 997f 882c 2c82 912b
00000180: ddfd 34ab 44aa 01ab 35ac d62b 2178 57ab
00000190: 762b 4f2c ba68 2eac 3dfe caab 7e21 8a2b
000001a0: 03d7 2d2a d2b7 37ac 3207 ca2a 87d6 28ac
000001b0: ae7d 50ab b40c 462b 13ba 142c 6434 c52b
000001c0: 6d8e ef2c 8973 272b b826 ed2b 4ee2 a2a7
000001d0: 7a12 c12b 58b7 552c 0840 5fac 3255 082b
000001e0: 4678 9a2b 06b5 8f2b 0c8e f2ab 5535 99ab
000001f0: c6fc b22a 55fa 752a fb9e 1eab 4d04 592b
00000200: 8473 3fab dc8e b22c 260b a3a9 21ad ca2b
00000210: b286 4e2a 4a08 52ac 5395 082c efd7 352d
00000220: 7d6d ccac 6582 a12c e2eb ff2c 965d 5a2d
00000230: 6a48 6cac 17d8 adab 539b 512b 4f3e 3baa
00000240: e696 36ab d58b e8ac a654 9c2c c457 f92a
00000250: c01a 22ac d0ce d229 f10b a5ac 3b12 30ab
00000260: f154 04ad a637 94ac 96fd dbac 139b 82ad
00000270: c0c5 57ab e7ba 1c2c f5ba 72ac 423a 5a2d
00000280: 26b4 3aac 4db8 3f2d 2193 7d2d d87b 13ac
00000290: 557b e8ab 669d ebac 83f2 a5ac 5de3 7529
000002a0: e29b adad 3810 612d 4a1a 2cac 8a13 3ead
000002b0: 1b64 c5ab 7dc5 662b 5d2a 91ab 7c6a 132d
000002c0: 041f 92ad c15c 08ad c7c2 07ad 3cc5 5e2d
000002d0: de21 982c 2029 9c2b 9510 002d 5e6a 90ab
000002e0: 39bb 23ad 8f35 d2ad cd46 8bac db67 ccac
000002f0: 362b 4dad c1c8 6fab 20db a52d 8c29 122d
00000300: 0b5b e3ac def9 8a2b 55d0 1c2d 5048 9cad
00000310: edc6 142d 9150 dc2c bff7 6dab 66a6 82ac
00000320: 845d 8cac a05e d52c ee48 ec2b 1316 90aa
00000330: ffb4 412d ade4 0ead ce60 34ac 61ea 622c
00000340: 4bdb d3ac 71b7 89ac 64fd b0ab 0168 cf2d
00000350: 5ea3 c8ac ec13 bcad 85af 2e2d da04 beaa
00000360: 1618 acac fd9d c4ab 6aba c12c 67f9 e4ab
00000370: a1bb 152d e35b f22c d4c3 99ad 1889 a2ab
00000380: 0de4 bdac 4b19 c12c 0b7c 202d 1fcd 01ad
00000390: 9f42 892d 780a 4e2d c5ae f62b cc57 222c
000003a0: 3b32 582c 4eda 7bac 96ec d42c 8f26 14ad
000003b0: b0ed 6a2c b166 02ad e595 f5ac d76a c92b
000003c0: 87bd b2ad 02d1 1d2d d589 752d 4467 3eac
000003d0: 0827 4c2a a4a1 79ad 9776 28ad c152 43ac
000003e0: b903 622b 35c0 e92b f743 4c2c 5722 232c
000003f0: 1b8f 822b f5f9 c62c bf2c 992c 01fa e12c

sam.image_encoder.temporal_transformer.layers.0.0.fn.to_out.0.bias f4 [12]
0.002776549 -0.0013843823 0.009156539 0.007580838 -0.0005890122 -0.018191865 0.0054707206 0.0054705543
-0.004846653 -0.009964613 0.005621388 -0.0009744788
00000000: c3f6 353b 2974 b5ba 4f05 163c ae68 f83b
00000010: f167 1aba 1b07 95bc bb43 b33b 5642 b33b
00000020: acd0 9ebb 9e42 23bc 9f33 b83b 2a74 7fba

sam.image_encoder.temporal_transformer.layers.0.1.norm.weight f4 [12]
0.13478181 0.40356916 0.0924449 -0.09041951 -0.41622415 -0.09624208 0.14445972 0.0006347051
-0.07305059 -0.050302718 -0.0015964006 0.13800986
00000000: 3e04 0a3e 9ea0 ce3e c053 bd3d dd2d b9bd
00000010: 551b d5be 911a c5bd 40ed 133e 5762 263a
00000020: 8c9b 95bd 390a 4ebd 513e d1ba 7552 0d3e

sam.image_encoder.temporal_transformer.layers.0.1.norm.bias f4 [12]
0.029017664 -0.036855496 -0.01248876 0.007161522 -0.051564347 0.008239595 -0.010448648 -0.00052893977
-0.028339926 -0.0068424656 0.0019922038 -0.0077891788
00000000: 74b6 ed3c caf5 16bd a89d 4cbc 33ab ea3b
00000010: 2335 53bd 5eff 063c ce30 2bbc 8ca8 0aba
00000020: 2229 e8bc c336 e0bb a28f 023b 5e3c ffbb

sam.image_encoder.temporal_transformer.layers.0.1.fn.net.0.weight f4 [48, 12]
0.07613391 -0.22769018 0.04289263 0.052860096 -0.12806289 0.071708165 0.08541197 -0.0010803791
-0.021449512 0.008205487 0.0014632166 0.011121947 -0.07917388 0.045312244 0.12409767 0.06167516
0.19122219 -0.019345237 0.15634689 -0.0006702749 0.060247026 -0.027803333 0.0008780328 0.0012343384
0.07129272 -0.16071288 0.03521055 0.029445035 -0.22363679 0.04846514 0.039977416 0.0006474879
-0.05027231 0.04285645 0.00041525174 -0.0077937716 0.097323276 -0.07487212 -0.008669505 0.0067321383
-0.35715723 0.0117147 -0.06322596 0.0045555183 -0.09006693 0.08381705 -0.0032095897 -0.054663744
0.0703309 -0.1962203 0.03952046 0.041172538 -0.17451948 0.059609577 0.06704387 -0.0002489096
-0.032593317 0.022118885 0.0030511334 0.0049660807 0.104661174 0.21783222 -0.014854912 0.121849746
0.23686665 -0.106560685 0.095402345 0.00013349993 -0.05032088 -0.079987004 0.009557604 -0.2115859
0.06923513 -0.21538319 0.040909134 0.04572263 -0.15681167 0.06531245 0.07656922 -0.0005792765
-0.022758428 0.013156048 0.0030032438 0.010851332 0.069091104 -0.21291609 0.04059465 0.04495555
-0.1597537 0.064434506 0.07521679 -0.00052106456 -0.023726733 0.014147249 0.003106888 0.010242715
0.115175396 -0.035436574 -0.0325062 0.0042969575 -0.39393145 -0.008879019 -0.100195006 0.004419817
-0.11035221 0.09282546 0.0003332006 -0.07967363 -0.034440376 0.09832468 0.09589889 0.07772238
0.22656122 -0.04313713 0.1543169 -0.0004008149 0.03132302 -0.04269488 -0.0068218517 -0.0645394
0.07503433 -0.2231708 0.042380087 0.051213942 -0.13455126 0.069839105 0.083085574 -0.0008615647
-0.022833124 0.0098959245 0.0020386176 0.010530496 -0.015565859 0.11308131 0.083183184 0.083699994
0.23058598 -0.05183442 0.15049008 -0.00016026956 0.020104088 -0.047411904 -0.0073123365 -0.08983464
0.16417949 0.2538927 -0.08054389 0.13531564 0.14278904 -0.14656341 0.0001531273 -0.0058983546
-0.1010673 -0.083795466 0.014013808 -0.23754257 -0.09857854 -0.024990942 0.1299912 0.0544025
0.13337341 -0.00067511445 0.14367937 0.00018336526 0.07836406 -0.011835468 0.015880885 0.05130939
-0.02597334 0.11039863 0.089217916 0.080817685 0.23651788 -0.047258798 0.15385343 -8.73164e-05
0.025916245 -0.045887712 -0.007192534 -0.074815325 0.0840772 -0.20187347 0.041560564 0.05176333
-0.13194104 0.06561573 0.077879354 -0.00048353866 -0.038232177 0.018232316 0.0024359894 0.0016496727
-0.025306383 0.10522439 0.08981656 0.08064457 0.2281236 -0.04744441 0.15246451 -0.00030747248
0.025894085 -0.04501382 -0.0071871434 -0.07710383 0.07695813 -0.23561352 0.043798007 0.055089913
-0.11943577 0.07465737 0.088864334 -0.0013462522 -0.018638939 0.0055401344 0.0004114446 0.012445379
0.16765448 0.25573987 -0.08642613 0.13551138 0.12692775 -0.15138583 -0.011893535 -0.0068770773
-0.10644915 -0.08284027 0.013692668 -0.23750533 0.06989194 -0.17971973 0.037918165 0.035594855
-0.19726844 0.054289993 0.055581402 0.000112072186 -0.040456854 0.031383455 0.0021857012 -0.00033450674
0.15712892 0.2539099 -0.07307097 0.13445874 0.16599381 -0.14025038 0.015744668 -0.0046156407
-0.09242662 -0.085665695 0.014398635 -0.23385364 -0.012340508 0.12075207 0.07989556 0.085081585
00000000: 18ec 9b3d 9d27 69be 2fb0 2f3d d483 583d
00000010: eb22 03be bbdb 923d 79ec ae3d 829b 8dba
00000020: e3b6 afbc 4f70 063c 67c9 bf3a d438 363c
00000030: ea25 a2bd 5599 393d eb26 fe3d 189f 7c3d
00000040: c0cf 433e e779 9ebc 6619 203e 63b5 2fba
00000050: 96c5 763d d1c3 e3bc c92b 663a 86c9 a13a
00000060: eb01 923d eb91 24be f038 103d b736 f13c
00000070: 0b01 65be 6283 463d 5cbf 233d 2dbc 293a
00000080: 56ea 4dbd 3f8a 2f3d 25b6 d939 e562 ffbb
00000090: 6d51 c73d 8e56 99bd 8a0a 0ebc 4599 dc3b
000000a0: 50dd b6be 03ef 3f3c 9d7c 81bd 7546 953b
000000b0: 0375 b8bd 46a8 ab3d fb57 52bb 17e7 5fbd
000000c0: a609 903d f9ed 48be 35e0 213d 89a4 283d
000000d0: 3cb5 32be 2c29 743d 4c4e 893d 1580 82b9
000000e0: 9280 05bd aa32 b53c 86f5 473b 81ba a23b
000000f0: 9958 d63d 690f 5f3e 0462 73bc 5c8c f93d
00000100: 2c8d 723e 7d3c dabd 4e62 c33d 1dfc 0b39
00000110: 441d 4ebd 3ad0 a3bd 7f97 1c3c f9a9 58be
00000120: 26cb 8d3d 698d 5cbe 5690 273d a747 3b3d
00000130: 3d93 20be 89c2 853d 53d0 9c3d 96da 17ba
00000140: e26f babc 778c 573c 12d2 443b c9c9 313c
00000150: a37f 8d3d ad06 5abe 9346 263d 5023 383d
00000160: 7996 23be 3df6 833d 430b 9a3d 0d98 08ba
00000170: 915e c2bc ddc9 673c ee9c 4b3b 0fd1 273c
00000180: 14e1 eb3d f125 11bd 3925 05bd 7ecd 8c3b
00000190: 62b1 c9be 4e79 11bc 0a33 cdbd 1dd4 903b
000001a0: 5700 e2bd 461b be3d 6db1 ae39 ee2b a3bd
000001b0: 5a11 0dbd 735e c93d a366 c43d e92c 9f3d
000001c0: aaff 673e 8fb0 30bd 4005 1e3e 7724 d2b9
000001d0: 914c 003d d4e0 2ebd d789 dfbb 3c2d 84bd
000001e0: 99ab 993d e386 64be be96 2d3d b6c5 513d
000001f0: cec7 09be ce07 8f3d c528 aa3d a1da 61ba
00000200: 880c bbbc 8422 223c 549a 053b 1a88 2c3c
00000210: f207 7fbc 2d97 e73d f25b aa3d e76a ab3d
00000220: bb1e 6c3e 5450 54bd 121a 1a3e 080e 28b9
00000230: 54b1 a43c fc32 42bd 539c efbb 39fb b7bd
00000240: ab1e 283e 39fe 813e 32f4 a4bd 2f90 0a3e
00000250: 4a37 123e b814 16be cc90 2039 fc46 c1bb
00000260: 5ffc cebd f59c abbd 2c9a 653c 5c3e 73be
00000270: 8ce3 c9bd ceb9 ccbc 6a1c 053e 28d5 5e3d
00000280: 0a93 083e 2afa 30ba af20 133e bd45 4039
00000290: 567d a03d 8de9 41bc a118 823c cc29 523d
000002a0: 0bc6 d4bc ad18 e23d e2b7 b63d be83 a53d
000002b0: be31 723e 7192 41bd c18b 1d3e a31d b7b8
000002c0: 4e4e d43c c1f4 3bbd 59af ebbb c738 99bd
000002d0: ab30 ac3d ebb7 4ebe 693b 2a3d c905 543d
000002e0: 8d1b 07be 8a61 863d 367f 9f3d 7683 fdb9
000002f0: 5899 1cbd f05b 953c 1fa5 1f3b d539 d83a
00000300: 554f cfbc e37f d73d bff1 b73d fb28 a53d
00000310: 3c99 693e 1255 42bd a81f 1c3e 4234 a1b9
00000320: d51f d43c 6960 38bd 2182 ebbb 9de8 9dbd
00000330: 399c 9d3d ac44 71be 8a65 333d f6a5 613d
00000340: be9a f4bd f7e5 983d 81fe b53d ba74 b0ba
00000350: b0b0 98bc 048a b53b 29b7 d739 b4e7 4b3c
00000360: 9ead 2b3e 56f0 823e 2f00 b1bd 7fc3 0a3e
00000370: 59f9 013e e304 1bbe 1add 42bc 1b59 e1bb
00000380: 0302 dabd 29a8 a9bd 3657 603c 9934 73be
00000390: 8123 8f3d 7308 38be 1450 1b3d e9cb 113d
000003a0: bd00 4abe 2f5f 5e3d 53a9 633d 4c08 eb38
000003b0: 16b6 25bd f08b 003d fb3d 0f3b bc60 afb9
000003c0: 67e6 203e 7a00 823e 3ca6 95bd 8daf 093e
000003d0: 48fa 293e cc9d 0fbe f6fa 803c cd3e 97bb
000003e0: 2b4a bdbd 7f71 afbd 41e8 6b3c 5477 6fbe
000003f0: d82f 4abc dc4c f73d 49a0 a33d 413f ae3d

sam.image_encoder.temporal_transformer.layers.0.1.fn.net.0.bias f4 [48]
0.01396311 -0.02177525 0.014398398 0.01902424 0.013727404 -0.02035848 0.01353039 0.013516308
0.022774285 -0.02476179 0.013879938 -0.024882415 -0.0048883716 -0.015122006 -0.025359625 0.01443123
-0.024826767 0.014067885 -0.0024707497 0.0139309885 -0.0083537875 -0.025354946 -0.02555924 0.013953154
-0.022656033 0.017799124 0.013568232 -0.023232026 -0.01103672 0.013995248 -0.024936108 -0.02025209
-0.01611526 0.014301424 -0.025452394 0.014003335 0.013817057 0.022604449 -0.012687087 -0.023090363
0.014221047 0.014196938 -0.022934629 -0.025074152 0.013603003 -0.024799567 -0.012527333 -0.010346518
00000000: 87c5 643c 0262 b2bc 42e7 6b3c b9d8 9b3c
00000010: e8e8 603c d4c6 a6bc 92ae 5d3c 8173 5d3c
00000020: 2391 ba3c 3dd9 cabc ae68 633c 35d6 cbbc
00000030: a22e a0bb 4ac2 77bc fdbe cfbc f770 6c3c
00000040: 8161 cbbc fc7c 663c 4dec 21bb cd3e 643c
00000050: 53de 08bc 2db5 cfbc 9c61 d1bc c59b 643c
00000060: 2599 b9bc 78cf 913c 4a4d 5e3c 1751 bebc
00000070: 5cd3 34bc 534c 653c cf46 ccbc b6e7 a5bc
00000080: 2604 84bc 8550 6a3c 8a81 d0bc 3e6e 653c
00000090: f060 623c f72c b93c 80dd 4fbc 0028 bdbc
000000a0: 65ff 683c 469a 683c 67e1 bbbc 4f68 cdbc
000000b0: 21df 5e3c 7628 cbbc 713f 4dbc 7184 29bc

sam.image_encoder.temporal_transformer.layers.0.1.fn.net.3.weight f4 [12, 48]
-0.056654938 -0.055415217 -0.042790115 -0.06157219 -0.04747473 -0.08807135 -0.051039837 -0.050431453
-0.077056505 -0.06549817 -0.055122133 -0.068662405 -0.09053951 -0.050583083 -0.06789263 -0.053896837
-0.066959396 -0.05903349 -0.090606086 -0.044559877 -0.09018217 -0.07011481 -0.06763094 -0.043015614
-0.058379095 -0.04255844 -0.050705917 -0.05965942 -0.0902721 -0.04610394 -0.066158235 -0.05315717
-0.050490335 -0.04303665 -0.06852029 -0.045545932 -0.045687426 -0.08050216 -0.05718481 -0.059254423
-0.04312983 -0.057153486 -0.058223054 -0.069647774 -0.05509153 -0.06773035 -0.05574836 -0.09054087
-0.022904456 0.028315764 0.0004279634 0.039321166 -0.010665456 0.037446816 -0.01477037 -0.013991359
0.053059857 0.036473192 -0.021060336 0.037462745 0.018378438 0.01472819 0.038935766 -0.022272795
0.036865376 -0.025519744 0.015962958 -0.0054615093 0.0229279 0.03948705 0.03959493 0.0017357676
0.029723005 -0.009375341 -0.014600912 0.03150597 0.025891876 -0.009336752 0.03717661 0.023532435
0.016949076 -0.0011059422 0.03940034 -0.008241832 -0.007630354 0.0584247 0.010207795 0.031083954
-0.0010143655 -0.024600724 0.031033216 0.038378373 -0.019448025 0.036930986 0.0095117185 0.024679434
-0.045395676 -0.085485436 -0.03023969 -0.005386498 -0.03932738 0.01121109 -0.04390734 -0.04331635
0.0051429993 -0.054617662 -0.044680867 -0.043439087 0.0423107 -0.11389062 -0.04993074 -0.03857315
-0.049035467 -0.046815973 0.045767624 -0.035353824 0.03647332 -0.042110957 -0.052622207 -0.032375854
-0.07047352 -0.015009998 -0.04328724 -0.069546245 0.032225236 -0.03646539 -0.05346563 -0.079578094
-0.11318955 -0.031252377 -0.04837895 -0.0360244 -0.037136238 0.004698495 -0.12481422 -0.07038216
-0.031716466 -0.043004707 -0.07676724 -0.041532718 -0.047434676 -0.045976464 -0.12075156 0.033714864
0.0745635 0.061342843 0.09282906 0.11677576 0.084705554 0.1489678 0.084090225 0.08456547
0.11389189 0.094557434 0.07604085 0.10214898 0.13893804 0.016211947 0.103126325 0.06566602
0.09795407 0.073280446 0.13586228 0.08859253 0.14514302 0.10819172 0.10373714 0.097284585
0.07037584 0.05974818 0.08365285 0.07554218 0.14776349 0.083479665 0.09693204 0.05019285
0.022420676 0.09131515 0.10501444 0.08468371 0.08704255 0.12059393 0.0046849595 0.07408916
0.09198139 0.06888075 0.071705215 0.105486564 0.0822938 0.099474825 0.0024292236 0.14596823
0.107169606 0.116960764 0.05330716 -0.013093719 0.08183811 0.016406685 0.09648595 0.09457157
-0.043513563 0.08574744 0.1035553 0.07327202 -0.0409854 0.14799115 0.082691446 0.08866244
0.079379395 0.11322818 -0.048888393 0.06861012 -0.027421815 0.07391776 0.086645395 0.058534518
0.09900213 0.012645316 0.09485784 0.099401996 -0.018635834 0.07347967 0.08503139 0.10558835
0.14728594 0.056255665 0.081246234 0.07158375 0.074359484 -0.042002436 0.16394256 0.100103855
0.05746996 0.10285585 0.108142525 0.07203599 0.109194495 0.075768575 0.15862939 -0.02208969
-0.038820136 0.04574396 -0.039556116 -0.029266104 -0.040821508 -0.12061258 -0.0412454 -0.041348536
-0.022820882 -0.0022923294 -0.03929615 -0.020659197 -0.13775916 0.08544897 -0.010855338 -0.036858566
00000000: 020f 68bd 11fb 62bd b044 2fbd 1f33 7cbd
00000010: dd74 42bd c05e b4bd 260f 51bd 3691 4ebd
00000020: cdcf 9dbd e823 86bd bfc7 61bd e09e 8cbd
00000030: c76c b9bd 3530 4fbd 4b0b 8bbd eec2 5cbd
00000040: 0222 89bd 1acd 71bd af8f b9bd 6b84 36bd
00000050: 6eb1 b8bd 5a98 8fbd 1782 8abd 2431 30bd
00000060: eb1e 6fbd c251 2ebd 02b1 4fbd 705d 74bd
00000070: 94e0 b8bd 7cd7 3cbd f87d 87bd 55bb 59bd
00000080: f4ce 4ebd 3347 30bd 5e54 8cbd 5f8e 3abd
00000090: bd22 3bbd 51de a4bd 9f3a 6abd c4b4 72bd
000000a0: e8a8 30bd c619 6abd 4c7b 6ebd 7ea3 8ebd
000000b0: a8a7 61bd 36b6 8abd 6458 64bd 7e6d b9bd
000000c0: 20a2 bbbc 76f6 e73c 4660 e039 3b0f 213d
000000d0: 2abe 2ebc d561 193d 6cff 71bc 033c 65bc
000000e0: 4b55 593d ea64 153d ba86 acbc 8972 193d
000000f0: 618e 963c 824e 713c 1c7b 1f3d 7075 b6bc
00000100: 2600 173d c80e d1bc c0c4 823c 76f6 b2bb
00000110: 4bd3 bb3c 2cbd 213d 4b2e 223d b282 e33a
00000120: a97d f33c 089b 19bc aa38 6fbc 670c 013d
00000130: 331b d43c 2df9 18bc 8046 183d 18c7 c03c
00000140: cad8 8a3c 43f5 90ba 4062 213d c008 07bc
00000150: 0c08 fabb bd4e 6f3d 983e 273c c7a3 fe3c
00000160: 75f4 84ba 7587 c9bc 5f39 fe3c a432 1d3d
00000170: 7751 9fbc f244 173d 0ad7 1b3c 862c ca3c
00000180: d1f0 39bd fd12 afbd 3ab9 f7bc 3881 b0bb
00000190: bf15 21bd b8ae 373c 2fd8 33bd 7c6c 31bd
000001a0: 9b86 a83b c5b6 5fbd 4903 37bd 2fed 31bd
000001b0: fc4d 2d3d 7c3f e9bd 2d84 4cbd e1fe 1dbd
000001c0: 6ad9 48bd 1bc2 3fbd d576 3b3d 2ccf 10bd
000001d0: 0c65 153d 8a7c 2cbd 628a 57bd 8b9c 04bd
000001e0: 6c54 90bd 7fec 75bc f64d 31bd 436e 8ebd
000001f0: 9cfe 033d bc5c 15bd c7fe 5abd d7f9 a2bd
00000200: eccf e7bd 7e02 00bd 0229 46bd 528e 13bd
00000210: 2b1c 18bd d5f5 993b 999e ffbd 8624 90bd
00000220: 20e9 01bd b425 30bd 2538 9dbd 361e 2abd
00000230: dd4a 42bd d151 3cbd 984c f7bd 9918 0a3d
00000240: c0b4 983d a242 7b3d 2a1d be3d 2128 ef3d
00000250: 1b7a ad3d 048b 183e 7f37 ac3d a930 ad3d
00000260: 2740 e93d 54a7 c13d 4ebb 9b3d 7c33 d13d
00000270: c645 0e3e ebce 843c e533 d33d e87b 863d
00000280: 259c c83d 0f14 963d 7b1f 0b3e 0070 b53d
00000290: 5fa0 143e 9f93 dd3d 2374 d43d 243d c73d
000002a0: 3521 903d 82ba 743d 2f52 ab3d dcb5 9a3d
000002b0: 504f 173e 63f7 aa3d 4e84 c63d 0597 4d3d
000002c0: 91ab b73c 7003 bb3d d011 d73d a76e ad3d
000002d0: 5d43 b23d f3f9 f63d 4a84 993b 0fbc 973d
000002e0: bd60 bc3d 5a11 8d3d 2fda 923d 5709 d83d
000002f0: a789 a83d 75b9 cb3d 9c33 1f3b b278 153e
00000300: bd7b db3d 2089 ef3d 9c58 5a3d 0a87 56bc
00000310: bd9a a73d 5067 863c 6d9a c53d bdae c13d
00000320: 473b 32bd 5b9c af3d cd14 d43d a40f 963d
00000330: 4fe0 27bd fe8a 173e 225a a93d a794 b53d
00000340: aa91 a23d 2de4 e73d 323f 48bd 7683 8c3d
00000350: b7a3 e0bc 3262 973d 2473 b13d e4c1 6f3d
00000360: a1c1 ca3d 4d2e 4f3c d444 c23d 4693 cb3d
00000370: 2daa 98bc 827c 963d f024 ae3d b43e d83d
00000380: 20d2 163e 576c 663d 6d64 a63d 809a 923d
00000390: c949 983d bf0a 2cbd 8fe0 273e 4003 cd3d
000003a0: 9f65 6b3d 16a6 d23d d479 dd3d 9b87 933d
000003b0: 5da1 df3d 8e2c 9b3d be6f 223e 70f5 b4bc
000003c0: dd01 1fbd 055e 3b3d 9805 22bd 78bf efbc
000003d0: 7434 27bd ba03 f7bd f0f0 28bd 155d 29bd
000003e0: dcf2 babc e83a 16bb 00f5 20bd 7a3d a9bc
000003f0: bd10 0dbe dfff ae3d 96da 31bc 02f9 16bd

sam.image_encoder.temporal_transformer.layers.0.1.fn.net.3.bias f4 [12]
0.033421654 -0.016925104 -0.0026741931 -0.004294544 0.02441049 0.012815736 0.009311216 -0.052394584
0.015155464 0.0291467 0.0093102455 -0.032431692
00000000: 25e5 083d 84a6 8abc 8441 2fbb 3fb9 8cbb
00000010: 82f8 c73c 18f9 513c 128e 183c b49b 56bd
00000020: a04e 783c 0fc5 ee3c 008a 183c 18d7 04bd

sam.image_encoder.temporal_transformer.layers.1.0.norm.weight f4 [12]
1.7580827e-11 1.4566423e-11 9.833327e-12 1.1851863e-11 8.2508375e-12 6.574553e-12 1.0023459e-11 1.1798936e-11
1.0774077e-11 9.759866e-12 5.2368526e-12 1.2046596e-11
00000000: 81a4 9a2d ab20 802d 5efd 2c2d 0c80 502d
00000010: 7826 112d 4f52 e72c a555 302d af91 4f2d
00000020: 218a 3d2d 87b2 2b2d 6041 b82c 0ced 532d

sam.image_encoder.temporal_transformer.layers.1.0.norm.bias f4 [12]
-3.0653266e-12 4.058009e-12 1.7183439e-14 -2.8290916e-12 3.5677123e-12 3.0795885e-12 9.667107e-13 -3.9629905e-12
2.4609492e-12 -2.1014729e-12 -2.736876e-12 2.8501012e-12
00000000: 04b4 57ac 4cc7 8e2c 50c6 9a28 6214 47ac
00000010: 310e 7b2c efb4 582c 6c0d 882b 726f 8bac
00000020: 852c 2d2c c5e0 13ac 2d97 40ac dc8e 482c

sam.image_encoder.temporal_transformer.layers.1.0.fn.to_qkv.weight f4 [384, 12]
2.2357773e-12 -2.9718498e-12 2.2307152e-12 -1.2101972e-12 1.6945774e-12 -5.192166e-13 -1.1310003e-12 7.397246e-13
2.4805472e-12 9.056558e-14 -3.131284e-12 -3.4988772e-12 5.451678e-13 -2.2877175e-12 1.1809059e-12 1.6406952e-12
5.725622e-13 5.5453493e-13 2.552983e-12 1.4149399e-12 -8.341555e-13 6.893064e-14 -9.203593e-13 6.472239e-13
2.5643062e-12 1.6970198e-12 -2.2850335e-12 8.6101964e-13 -2.3960734e-12 2.5369106e-12 1.2366733e-12 2.0994584e-12
1.3219815e-12 2.3705085e-12 2.4714827e-12 -1.0944525e-12 -9.098857e-13 -7.9386167e-13 1.867611e-12 -2.2182573e-12
7.659133e-13 1.0784744e-12 -2.228307e-12 6.2062844e-13 8.5272295e-13 1.926807e-12 1.8303566e-12 5.013813e-13
7.135621e-13 1.3887284e-12 9.6076216e-14 1.7847103e-12 2.727025e-12 2.703503e-12 1.963705e-12 3.1442715e-12
1.741611e-12 1.8369137e-12 -1.7334891e-12 -4.2148173e-12 -1.2957762e-12 -3.4683595e-13 2.6935355e-12 1.7344663e-12
2.3280937e-12 -1.7525637e-12 8.8407797e-13 -3.3685714e-13 1.2814566e-12 -1.1760449e-12 8.686808e-13 -1.0692519e-12
5.6835266e-13 -7.472085e-15 2.6552138e-14 -2.0968418e-12 2.2509618e-12 2.0688917e-12 2.9974254e-12 -2.2063254e-12
-1.8550363e-12 -1.0249342e-12 -5.765699e-13 1.3009302e-12 -1.1875302e-12 9.047322e-13 2.158861e-12 -1.1866908e-12
1.8872414e-12 -2.6689553e-12 2.9923983e-13 1.332505e-12 -1.8718846e-12 1.1613906e-12 -1.0777542e-12 1.873547e-12
-1.6525544e-13 -2.5549235e-12 2.5349346e-13 8.157613e-13 1.5476377e-12 -2.5334125e-12 1.7756162e-12 -7.8443485e-13
5.3698777e-13 -1.5716621e-12 1.9686566e-12 -1.7280961e-12 7.557085e-13 2.81952e-12 -4.3805017e-14 1.349559e-12
-1.7075498e-12 -1.840191e-12 6.6357987e-13 1.0219908e-12 3.1000651e-12 -2.510216e-12 -5.476241e-13 2.0201128e-12
-3.589587e-12 -8.840433e-13 -1.7165836e-12 -1.5499476e-12 -7.140768e-13 1.7757992e-12 2.7731092e-12 -1.3175197e-12
2.6928726e-12 3.12056e-13 -8.828101e-13 3.1510504e-12 -1.6777271e-12 6.402193e-13 -1.2505252e-12 1.8778846e-12
-2.2690163e-13 -3.6878807e-12 2.7813518e-12 -1.0843429e-12 -2.4950654e-12 8.49865e-13 4.5940296e-14 3.3110252e-13
-4.7903656e-12 1.3718457e-12 -6.744931e-13 4.5134276e-14 -3.1226367e-12 -3.0831657e-12 -1.5498842e-12 -2.6689699e-12
2.0176098e-12 -6.759612e-13 3.710738e-12 3.395093e-12 -3.9766077e-13 5.661975e-13 1.3264551e-12 -2.5762918e-12
-2.3492625e-12 -3.5799625e-12 7.41849e-13 -4.913054e-12 -9.903995e-13 2.7478646e-13 1.9498294e-12 1.3041873e-12
-2.2955086e-12 3.6331001e-12 -1.1054461e-12 -3.4863792e-12 -1.9903788e-12 -4.42009e-13 -1.867452e-12 -2.4969206e-12
-2.089583e-12 -5.784122e-13 -1.407562e-12 3.679609e-12 -1.07439604e-13 1.5740344e-12 -3.417651e-13 9.67151e-13
-2.2085085e-12 -1.518397e-12 -1.8675088e-12 2.3810422e-12 -2.8635707e-13 2.4860875e-12 1.0741642e-12 -8.780584e-13
7.811526e-13 -8.0063864e-13 2.1164893e-12 1.897312e-12 -3.3333937e-13 -2.387598e-12 1.981692e-12 7.818365e-13
-1.2469726e-12 3.5955389e-13 1.7915365e-13 3.7125684e-12 -1.5098012e-12 -1.8891713e-12 -1.5099106e-12 4.1072216e-13
-4.2317468e-13 -3.3714578e-13 -1.3461786e-12 1.015019e-12 2.8854323e-12 7.749391e-13 1.6855395e-12 2.567898e-12
2.8755323e-12 8.314951e-13 -1.569208e-12 -2.6272468e-13 7.896237e-14 -1.9578753e-12 -1.8710639e-12 1.406636e-12
1.6155857e-12 8.167575e-14 -1.1201499e-12 -4.2050426e-12 -3.573963e-13 1.4383866e-12 1.4594252e-13 1.3884533e-12
1.4302908e-12 -1.2900127e-12 -2.5407324e-12 -6.9817513e-13 1.9233488e-12 -3.0714767e-13 5.977419e-13 3.3885083e-13
-2.872296e-12 2.0198823e-12 -2.9429443e-13 3.8559395e-13 -2.225325e-12 -9.897091e-14 -1.2731444e-12 7.5686587e-13
2.554247e-12 1.0155565e-12 -1.2678725e-12 -2.0744704e-12 -5.240499e-13 -7.1781166e-13 -1.9958115e-12 -9.38542e-13
00000000: 2f54 1d2c 1620 51ac fef8 1c2c f351 aaab
00000010: 967d ee2b 8025 12ab 952c 9fab c636 502b
00000020: 918d 2e2c 81ef cb29 3358 5cac 2b36 76ac
00000030: 7b73 192b dbfb 20ac 9e32 a62b 46e8 e62b
00000040: 7429 212b 7416 1c2b 74a6 332c 9522 c72b
00000050: 3dcb 6aab cf37 9b29 7087 81ab 662d 362b
00000060: 6f72 342c 95d5 ee2b 81cb 20ac 015b 722b
00000070: d29b 28ac eb84 322c da0b ae2b 7bbc 132c
00000080: 670d ba2b 49cf 262c 46ea 2d2c cf07 9aab
00000090: 160e 80ab c373 5fab e46b 032c 9218 1cac
000000a0: df95 572b 23c8 972b 9ccd 1cac feb0 2e2b
000000b0: 2a05 702b 4596 072c c6cc 002c 5520 0d2b
000000c0: 91d9 482b 3772 c32b 2b58 d829 f72c fb2b
000000d0: b7e5 3f2c fb3d 3e2c f72e 0a2c 2942 5d2c
000000e0: 261c f52b e542 012c 87f7 f3ab b34b 94ac
000000f0: 425d b6ab 5440 c3aa 6c8a 3d2c bc1a f42b
00000100: 35d3 232c c3a6 f6ab 88d8 782b 3ba2 bdaa
00000110: 5759 b42b 7c83 a5ab 0c83 742b dc7b 96ab
00000120: 20fa 1f2b e99a 06a8 1029 ef28 588d 13ac
00000130: b965 1e2c d795 112c d1ec 522c a041 1bac
00000140: 5d89 02ac 253f 90ab 3d4a 22ab f316 b72b
00000150: 4921 a7ab d3a8 7e2b 95ea 172c 0b03 a7ab
00000160: 85cd 042c a0cf 3bac 0175 a82a 8d88 bb2b
00000170: e0b8 03ac 8273 a32b 30ae 97ab d3d6 032c
00000180: a30f 3aaa 69c9 33ac 42b4 8e2a cc9d 652b
00000190: 86cf d92b e745 32ac 51e5 f92b 7dcc 5cab
000001a0: 0c26 172b 1831 ddab 2a88 0a2c 3935 f3ab
000001b0: 89b6 542b f567 462c bf47 45a9 fdee bd2b
000001c0: f750 f0ab ef7d 01ac f8c7 3a2b 19d5 8f2b
000001d0: cf25 5a2c 08a4 30ac 7a24 1aab 1e27 0e2c
000001e0: 4098 7cac 09d6 78ab 7196 f1ab bf22 daab
000001f0: a8fe 48ab e9eb f92b e523 432c a66c b9ab
00000200: 7b7e 3d2c 02ac af2a 2c7d 78ab 47bc 5d2c
00000210: 7d1e ecab aa34 342b ebfe afab f624 042c
00000220: f177 7faa 7ac1 81ac 61b8 432c 929b 98ab
00000230: 1a93 2fac 3a37 6f2b 8ee5 4e29 e764 ba2a
00000240: c78b a8ac f311 c12b 5ada 3dab 4744 4b29
00000250: 6cbc 5bac 60f5 58ac 7720 daab e3cf 3bac
00000260: 07fa 0d2c 2344 3eab 5b8f 822c 8fe8 6e2c
00000270: f5dc dfaa d45e 1f2b 95ae ba2b 594a 35ac
00000280: 8d50 25ac dfea 7bac dbcf 502b dbdc acac
00000290: e762 8bab e7b0 9a2a 0135 092c 4d8c b72b
000002a0: 3588 21ac 1da8 7f2c e593 9bab 0655 75ac
000002b0: 7a0f 0cac 36d4 f8aa 0669 03ac 86b4 2fac
000002c0: 950a 13ac fece 22ab c418 c6ab f976 812c
000002d0: b7ee f1a9 9186 dd2b 8b65 c0aa 491d 882b
000002e0: f468 1bac 04b2 d5ab 0c6a 03ac 0b8d 272c
000002f0: 6734 a1aa 5ff1 2e2c d82c 972b c726 77ab
00000300: fadf 5b2b 185c 61ab 48ef 142c ef82 052c
00000310: 44a7 bbaa 2403 28ac fd72 0b2c 4211 5c2b
00000320: ec7e afab 2d69 ca2a 86b5 492a d89f 822c
00000330: 527c d4ab 49f0 04ac 4380 d4ab 4d37 e72a
00000340: e639 eeaa d4cb bdaa 3275 bdab ead9 8e2b
00000350: 540b 4b2c 3f20 5a2b f637 ed2b 23b3 342c
00000360: fc58 4a2c 890b 6a2b add8 dcab 9ee6 93aa
00000370: b5ce b129 f2c5 09ac 17aa 03ac 67f7 c52b
00000380: 9c5f e32b ddea b729 a7a5 9dab a8f3 93ac
00000390: 3c32 c9aa 576f ca2b 1151 242a 4d68 c32b
000003a0: a84b c92b 9b8d b5ab c4c9 32ac d284 44ab
000003b0: f957 072c a5e8 acaa d83f 282b 8dc1 be2a
000003c0: af1e 4aac f722 0e2c 4cac a5aa f211 d92a
000003d0: e497 1cac d8dc dea9 dc2d b3ab ef09 552b
000003e0: 39bd 332c 47ed 8e2b ec6f b2ab 56fa 11ac
000003f0: c681 13ab c80b 4aab 5871 0cac 8a16 84ab
