checkpoints/cnn/epoch_199_custom.pth (torch, 3239 bytes, 2 tensors)

sam.image_encoder.temporal_channel_embed.weight f4 [3, 180, 1, 1]
0	0xbcd31772	-0.025768016
1	0xbcd2e1ad	-0.025742376
2	0xbcd2f620	-0.025752127
3	0xbc9410f0	-0.018074483
4	0xbc943dd1	-0.018095883
5	0xbc93e125	-0.018051693
6	0xbb9ac2b9	-0.00472292
7	0xbb99d32f	-0.0046943645
8	0xbb995ce3	-0.0046802624
9	0xbd1b7fd0	-0.03796369
10	0xbd1b5f52	-0.0379327
11	0xbd1b6f4a	-0.03794793
12	0x3db89282	0.09012319
13	0x3db8942d	0.09012637
14	0x3db880af	0.090089194
15	0x3dfc42f7	0.1231746
16	0x3dfc3480	0.12314701
17	0x3dfc4212	0.123172894
18	0x3a2244bc	0.0006190052
19	0x3a2b2228	0.0006528222
20	0x3a28cab9	0.00064388994
21	0x3e0b2ead	0.13592024
22	0x3e0b2dc7	0.13591681
23	0x3e0b3488	0.13594258
24	0x3de1df9d	0.11028979
25	0x3de1d75a	0.11027403
26	0x3de1cd0f	0.1102544
27	0x3da1f52b	0.0790809
28	0x3da20050	0.07910216
29	0x3da1e989	0.079058714
30	0x3e0645a2	0.131125
31	0x3e063fdf	0.13110302
32	0x3e0647de	0.13113353
33	0x3dddcaa4	0.10829666
34	0x3dddd1ed	0.10831056
35	0x3dddd753	0.108320855
36	0x3df6ddb1	0.12054003
37	0x3df6cea0	0.12051129
38	0x3df6e16c	0.120547146
39	0x3de9625e	0.11395715
40	0x3de96e81	0.1139803
41	0x3de95fbf	0.11395215
42	0x3deab576	0.11460392
43	0x3deab929	0.11461098
44	0x3deaacc6	0.11458735
45	0x3e39f334	0.18159181
46	0x3e39edf7	0.18157183
47	0x3e39e795	0.18154748
48	0x3d177a4a	0.03698186
49	0x3d1774b2	0.036976524
50	0x3d1770d3	0.036972832
51	0x3d604c90	0.054760516
52	0x3d603d09	0.054745708
53	0x3d6042ee	0.05475133
54	0x3de9124c	0.11380443
55	0x3de8ffc8	0.113769114
56	0x3de8f575	0.11374942
57	0x3e5515b9	0.20809068
58	0x3e5518df	0.20810269
59	0x3e551913	0.20810346
60	0x3df5aa14	0.119953305
61	0x3df5b451	0.11997283
62	0x3df5afca	0.1199642
63	0x3d74cbb4	0.05976458
64	0x3d74db81	0.059779648
65	0x3d74de09	0.05978206
66	0x3ca9a896	0.02071027
67	0x3ca962b2	0.020676944
68	0x3ca95ec3	0.020675069
69	0x3c21b6e6	0.009870267
70	0x3c21a9b1	0.009867118
71	0x3c21aaa5	0.009867345
72	0xbbaee57f	-0.0053374167
73	0xbbaccb8a	-0.005273287
74	0xbbad32af	-0.005285583
75	0xbc3fb869	-0.011701682
76	0xbc3fce1f	-0.011706858
77	0xbc3f6f72	-0.0116842855
78	0xbc957e56	-0.018248718
79	0xbc95daf1	-0.018292876
80	0xbc95c28e	-0.018281247
81	0xbd0b0a93	-0.03394563
82	0xbd0b30ef	-0.033982214
83	0xbd0b1da3	-0.03396381
84	0xbdb886b1	-0.09010065
85	0xbdb86877	-0.090043
86	0xbdb86f6d	-0.09005628
87	0xbd80f7a4	-0.06297234
88	0xbd80f0eb	-0.062959515
89	0xbd80e08b	-0.06292828
90	0x3cbfdb45	0.023419986
91	0x3cbfeabc	0.02342736
92	0x3cbf9ceb	0.023390254
93	0x3d31a249	0.043367658
94	0x3d31c5af	0.043401416
95	0x3d3199e2	0.043359645
96	0x3ca3097c	0.019901983
97	0x3ca3383f	0.019924281
98	0x3ca33df6	0.019927006
99	0x3cf82708	0.030292049
100	0x3cf837ab	0.030299982
101	0x3cf8429f	0.030305205
102	0x3d86ddaa	0.06585248
103	0x3d86dac6	0.065846965
104	0x3d86ed57	0.06588238
105	0x3d9aaa75	0.07552043
106	0x3d9aa14c	0.07550296
107	0x3d9a9124	0.075472146
108	0x3d55062d	0.052007843
109	0x3d5501cc	0.052003667
110	0x3d552565	0.052037615
111	0x3dc574c1	0.0964141
112	0x3dc57728	0.09641868
113	0x3dc57912	0.09642233
114	0x3d2240cf	0.039612588
115	0x3d2240e4	0.039612666
116	0x3d221b6c	0.039576933
117	0x3d747eb7	0.059691157
118	0x3d749ae1	0.059718017
119	0x3d74865b	0.059698444
120	0xbc6d933c	-0.014500435
121	0xbc6cdb6b	-0.01445661
122	0xbc6c80b1	-0.014434979
123	0x3d31265e	0.04324948
124	0x3d313b04	0.043269172
125	0x3d314a8a	0.043283977
126	0x3a9810b8	0.0011601662
127	0x3a97dfd4	0.0011587092
128	0x3a9f15ae	0.0012137198
129	0xbbd7648c	-0.0065732654
130	0xbbd6573e	-0.006541162
131	0xbbd6e500	-0.0065580606
132	0xbacd3754	-0.0015656748
133	0xbad14f48	-0.0015969062
134	0xbacf45f4	-0.0015813694
135	0x3d1ab6e1	0.037772063
136	0x3d1aafc3	0.037765276
137	0x3d1a94e2	0.037739642
138	0xbe439481	-0.19099618
139	0xbe438ea9	-0.1909739
140	0xbe439d69	-0.19103016
141	0xbe17fc87	-0.14842425
142	0xbe180500	-0.14845657
143	0xbe180410	-0.148453
144	0xbcfc7c93	-0.03082112
145	0xbcfcda6d	-0.030865872
146	0xbcfca973	-0.030842518
147	0xbded6a00	-0.115924835
148	0xbded74c6	-0.115945384
149	0xbded8198	-0.11596984
150	0x3cb32c58	0.02187173
151	0x3cb374d1	0.021906288
152	0x3cb35723	0.021892136
153	0xbb51ab6e	-0.003199305
154	0xbb54a460	-0.0032446608
155	0xbb528c16	-0.0032126955
156	0x3b18cabc	0.0023314198
157	0x3b18c7b8	0.00233124
158	0x3b1a7bde	0.0023572366
159	0x3cb71064	0.022346683
160	0x3cb71a2c	0.022351347
161	0x3cb707e7	0.022342635
162	0xbb050ac4	-0.0020300606
163	0xbb066205	-0.0020505202
164	0xbb07f95a	-0.002074799
165	0xbc08173d	-0.008306322
166	0xbc07f78c	-0.008298766
167	0xbc07faf8	-0.008299582
168	0x3d50d98a	0.05098871
169	0x3d50d3b5	0.05098315
170	0x3d50be70	0.050962865
171	0x3d3a01a7	0.045411732
172	0x3d3a4091	0.04547173
173	0x3d3a3845	0.04546382
174	0x3da65894	0.08122364
175	0x3da661cb	0.08124121
176	0x3da64660	0.08118892
177	0x3c39d51d	0.011342314
178	0x3c39d2d2	0.011341767
179	0x3c3a2005	0.011360173
180	0xbce54b6a	-0.027990062
181	0xbce4d2bf	-0.027932523
182	0xbce509b6	-0.027958732
183	0xbca08e3e	-0.019599076
184	0xbca0d9a2	-0.019635025
185	0xbca0b96f	-0.019619672
186	0xbd4c5244	-0.049883142
187	0xbd4c610e	-0.049897246
188	0xbd4c350d	-0.04985528
189	0xbad0ab2f	-0.0015920157
190	0xbacd36f5	-0.0015656637
191	0xbad1aa63	-0.0015996214
192	0xbc0e60a4	-0.008690033
193	0xbc0e7605	-0.00869513
194	0xbc0e11a9	-0.008671203
195	0xbc8506d6	-0.016238611
196	0xbc85278f	-0.016254215
197	0xbc853f96	-0.016265672
198	0xbb2291ad	-0.0024806068
199	0xbb203b3c	-0.002444937
200	0xbb228668	-0.002479935
201	0x3ce86c33	0.028371906
202	0x3ce81853	0.028331911
203	0x3ce873ad	0.028375471
204	0x3bee1a34	0.0072663072
205	0x3bedc155	0.007255713
206	0x3beda0c6	0.0072518317
207	0x3cb53776	0.022121172
208	0x3cb4f935	0.022091487
209	0x3cb51d99	0.02210884
210	0x3d0eef1e	0.03489601
211	0x3d0ed948	0.034875184
212	0x3d0ee941	0.034890417
213	0x3c52444b	0.012833665
214	0x3c516ae7	0.012781835
215	0x3c516d39	0.012782388
216	0x3dcfabca	0.10140188
217	0x3dcfb856	0.10142581
218	0x3dcfb2ed	0.10141549
219	0x3dd40fd5	0.10354582
220	0x3dd40790	0.10353005
221	0x3dd40052	0.103516236
222	0x3dc357f6	0.095382616
223	0x3dc361a9	0.095401116
224	0x3dc34ab8	0.09535736
225	0x3e04b471	0.12959458
226	0x3e04aee8	0.12957346
227	0x3e04b57a	0.12959853
228	0x3d451d57	0.048123684
229	0x3d451be4	0.0481223
230	0x3d454a93	0.048166823
231	0x3dba001d	0.09082053
232	0x3dba023a	0.09082456
233	0x3dba1a03	0.090869926
234	0x3df82da2	0.12118079
235	0x3df814aa	0.12113316
236	0x3df831f9	0.121189065
237	0x3e5f3d48	0.2180072
238	0x3e5f45d7	0.21803986
239	0x3e5f39b6	0.21799359
240	0x3df108b8	0.11769241
241	0x3df10dbf	0.117702
242	0x3df11715	0.11771981
243	0x3df98a81	0.12184621
244	0x3df99b85	0.12187866
245	0x3df993aa	0.12186368
246	0x3d06bc01	0.03289414
247	0x3d06c454	0.032902077
248	0x3d06c655	0.032903988
249	0x3d030a68	0.031992346
250	0x3d034003	0.03204347
251	0x3d03174d	0.032004643
252	0xbc2493ba	-0.010044986
253	0xbc246788	-0.010034449
254	0xbc251b72	-0.010077344
255	0xbcb697f7	-0.02228926

sam.image_encoder.temporal_channel_embed.bias f4 [3]
0	0xbe885c5f	-0.26632974
1	0x3e0e3e54	0.13890964
2	0x3dd83332	0.1055664
