checkpoints/transformer_cnn_13/epoch_449_custom.pth (torch, 135765 bytes, 48 tensors)

sam.image_encoder.temporal_transformer.layers.0.0.norm.weight f4 [12]
0	0x31c488ef	5.7199183e-09
1	0x35da4b1d	1.6264127e-06
2	0x33f9cfd1	1.16327676e-07
3	0x31aef8d8	5.0923568e-09
4	0x31aff73c	5.1212776e-09
5	0x3617cb3d	2.2619054e-06
6	0x32b53a10	2.1097577e-08
7	0x31b629f3	5.301666e-09
8	0x31d9c77b	6.3382095e-09
9	0x361bed3e	2.3234893e-06
10	0xb38de915	-6.6082215e-08
11	0x31e0dc89	6.54433e-09

sam.image_encoder.temporal_transformer.layers.0.0.norm.bias f4 [12]
0	0xaf162c43	-1.3658145e-10
1	0x3436235c	1.6962935e-07
2	0xb22bdc1d	-1.0003558e-08
3	0xaea43165	-7.466631e-11
4	0xaf07f857	-1.2366407e-10
5	0x347d419f	2.3586334e-07
6	0xb0f908e7	-1.8119665e-09
7	0xaea95c21	-7.7015956e-11
8	0xaf268f56	-1.5148535e-10
9	0x34822028	2.4237784e-07
10	0x31c33d41	5.6822107e-09
11	0xaed074a9	-9.479468e-11

sam.image_encoder.temporal_transformer.layers.0.0.fn.to_qkv.weight f4 [384, 12]
0	0xb0b0bdc8	-1.2859624e-09
1	0xaed809d6	-9.82429e-11
2	0xaff8e5fd	-4.5274354e-10
3	0xaf4d44ac	-1.8669039e-10
4	0xb0a8045c	-1.2224848e-09
5	0x3013d31a	5.377828e-10
6	0xb076b744	-8.9754715e-10
7	0x2e1e5fee	3.6010243e-11
8	0x2eeed8b2	1.086148e-10
9	0xaf918f5d	-2.6477212e-10
10	0x3039245a	6.7354267e-10
11	0x2f836d5e	2.390647e-10
12	0x3089c3cb	1.002371e-09
13	0x306f0e5b	8.6968094e-10
14	0xb052f04d	-7.6739043e-10
15	0x2fe307c7	4.1296586e-10
16	0xae3f4e12	-4.3497712e-11
17	0x3010137e	5.2414595e-10
18	0xb06b74f0	-8.565868e-10
19	0x30118aca	5.2947924e-10
20	0x30287b1e	6.1293004e-10
21	0xaf818a0b	-2.356305e-10
22	0xb0628038	-8.240053e-10
23	0x2fa86482	3.0630437e-10
24	0x30c3f9b5	1.4259088e-09
25	0x306d9d51	8.644366e-10
26	0xb0322ced	-6.4819866e-10
27	0xaf8e7d34	-2.5918612e-10
28	0x308e2546	1.0342454e-09
29	0xafd66f67	-3.900553e-10
30	0xaf4dbcf6	-1.8711774e-10
31	0xb01795df	-5.514646e-10
32	0x30900700	1.0479368e-09
33	0xae0cbf1c	-3.2002054e-11
34	0xb007c618	-4.939422e-10
35	0x2f390aaf	1.6829448e-10
36	0x307c7eaf	9.1857094e-10
37	0xafb7a1e5	-3.340254e-10
38	0x308ef2b6	1.0400842e-09
39	0xb082e090	-9.522569e-10
40	0xad65de4b	-1.3066502e-11
41	0xb0ab7b51	-1.2476936e-09
42	0x2f24fddc	1.5005902e-10
43	0x2f8b3b7f	2.5326227e-10
44	0xaf90ca37	-2.633713e-10
45	0x2f9936c5	2.7869454e-10
46	0xaef51657	-1.11452785e-10
47	0xb086f14a	-9.818362e-10
48	0x305571d5	7.7650714e-10
49	0x2fb45afa	3.2806452e-10
50	0x30813328	9.400525e-10
51	0x3044abcb	7.1548517e-10
52	0x2fb34c62	3.2614184e-10
53	0x2f7d40b9	2.303321e-10
54	0x30b12c87	1.28911e-09
55	0xafc8a390	-3.6496006e-10
56	0xb070b46a	-8.7567875e-10
57	0xb06dd0d6	-8.651687e-10
58	0x2f8d0239	2.564933e-10
59	0xaf8fe009	-2.6170735e-10
60	0x2f50f566	1.9004673e-10
61	0x2fdf77b8	4.064853e-10
62	0x301d6b2d	5.7268573e-10
63	0xb086138b	-9.755338e-10
64	0xaf115ba1	-1.3220226e-10
65	0xb0018fc3	-4.7134224e-10
66	0x307326ef	8.8458213e-10
67	0xb01dd401	-5.7417543e-10
68	0xaf8bc19a	-2.5421515e-10
69	0xafd5f1db	-3.8916323e-10
70	0xae321f00	-4.0500048e-11
71	0xaff528a9	-4.459413e-10
72	0xb0c07219	-1.4002267e-09
73	0x307f5bff	9.2899194e-10
74	0x30442193	7.1352096e-10
75	0xaf842c61	-2.4042193e-10
76	0xb08b9981	-1.015721e-09
77	0x2d07fb01	7.729596e-12
78	0x304f03eb	7.531173e-10
79	0xb00aa82c	-5.0443094e-10
80	0xb04e867c	-7.5133477e-10
81	0x2fe67c6d	4.1925166e-10
82	0xb01825b5	-5.5350863e-10
83	0x2f22097d	1.4737185e-10
84	0xb08163b6	-9.414325e-10
85	0x3095b33c	1.0892118e-09
86	0x2ff15445	4.3897522e-10
87	0xb06ae19e	-8.5449325e-10
88	0xb0458e8c	-7.1870754e-10
89	0x3002c8a5	4.757886e-10
90	0xaeb8aa8e	-8.397648e-11
91	0x2fe9c2f5	4.2520978e-10
92	0xb08a53bc	-1.006462e-09
93	0xb0065cb4	-4.8880655e-10
94	0x2fbd15c6	3.439437e-10
95	0xb03a1165	-6.7691125e-10
96	0xaf200ff7	-1.4557587e-10
97	0x2e9d5ac2	7.155655e-11
98	0x3092308d	1.0636697e-09
99	0xaea6d026	-7.5857806e-11
100	0x2fd0eb06	3.8001974e-10
101	0x2e845eae	6.0194835e-11
102	0x2fd1182e	3.803406e-10
103	0xaff31763	-4.421806e-10
104	0x30781bdb	9.026146e-10
105	0x302e3997	6.338267e-10
106	0x308a64dd	1.0069489e-09
107	0xb0290d44	-6.1500693e-10
108	0xb027b63c	-6.1013217e-10
109	0xb070c94f	-8.759757e-10
110	0xaf97576e	-2.7528863e-10
111	0xafc70a06	-3.620501e-10
112	0x2e8fc6c2	6.5381936e-11
113	0x2e35978c	4.1289236e-11
114	0x3048e2e6	7.308202e-10
115	0x3093eb4d	1.0762534e-09
116	0x2f675fba	2.1043337e-10
117	0xaf12a1c9	-1.33361e-10
118	0x2f815064	2.3522084e-10
119	0xae05683a	-3.033327e-11
120	0xb0385836	-6.7064165e-10
121	0x30164769	5.467116e-10
122	0x30416e24	7.036951e-10
123	0xb083adfa	-9.580952e-10
124	0x2f0443ea	1.2029458e-10
125	0x2ff068cf	4.3730217e-10
126	0xb0a55f1d	-1.2032363e-09
127	0xb08bd552	-1.017421e-09
128	0x309e8a4b	1.1535318e-09
129	0xaf467be3	-1.8052008e-10
130	0x2fa3e47e	2.981188e-10
131	0xab605b01	-7.970708e-13
132	0x303925f6	6.7356554e-10
133	0xb013f313	-5.382372e-10
134	0xb0147623	-5.400997e-10
135	0x300536a8	4.846279e-10
136	0x3077b6ea	9.0118013e-10
137	0xaf0abcd2	-1.261811e-10
138	0xaf46effe	-1.8093257e-10
139	0x3026c78c	6.067402e-10
140	0xb0115541	-5.2871846e-10
141	0x306f91c4	8.715484e-10
142	0xb02f3e21	-6.375292e-10
143	0xafef2436	-4.3499576e-10
144	0x30546b00	7.7277207e-10
145	0xb09b66c2	-1.130694e-09
146	0x2f143ad3	1.348142e-10
147	0x305810b6	7.860409e-10
148	0x3030c670	6.4310424e-10
149	0xb034b0fd	-6.5735134e-10
150	0x2e9357ab	6.700359e-11
151	0x30263768	6.0469185e-10
152	0x30367c9e	6.6388306e-10
153	0x300133cb	4.700353e-10
154	0xafd6c5c3	-3.9066891e-10
155	0x2e95c1d3	6.8101656e-11
156	0x2ff1c15d	4.3975038e-10
157	0x2e3f2ce8	4.3468257e-11
158	0x30944fdf	1.0791118e-09
159	0x2feb792a	4.2832343e-10
160	0x30874f35	9.845055e-10
161	0x2fb24802	3.2429176e-10
162	0x30138d92	5.367947e-10
163	0xafc464dc	-3.5723857e-10
164	0xb0423ea2	-7.0665795e-10
165	0xb09084ef	-1.0515161e-09
166	0xb0203fcd	-5.829833e-10
167	0xb06d68f4	-8.6369245e-10
168	0x305fb4c6	8.138382e-10
169	0x2f7fffd4	2.3283003e-10
170	0xafadca0e	-3.1612085e-10
171	0xb08fd110	-1.0464039e-09
172	0x30bb362c	1.3621437e-09
173	0x30427b18	7.0751716e-10
174	0x300a2c0b	5.0266696e-10
175	0x30659561	8.3521995e-10
176	0xaf93d714	-2.6891966e-10
177	0xb0429588	-7.0789286e-10
178	0xb02ec658	-6.3582695e-10
179	0xaf9a1810	-2.8029534e-10
180	0xb0a046a4	-1.166161e-09
181	0x30863468	9.764678e-10
182	0xae98c3ef	-6.9469645e-11
183	0x30440018	7.130452e-10
184	0xb05cef5d	-8.037569e-10
185	0x2da0e765	1.8292654e-11
186	0x2e2fdfec	3.9989276e-11
187	0xaefccd39	-1.1496088e-10
188	0x305c37fb	8.0115087e-10
189	0xafca4d32	-3.6798437e-10
190	0x2f7e0521	2.3102988e-10
191	0xb0172745	-5.4989285e-10
192	0x2f9dbb76	2.8691333e-10
193	0x2d9997b4	1.7461456e-11
194	0x2ea6acbc	7.57949e-11
195	0x3030b378	6.428347e-10
196	0x303b19bc	6.8066774e-10
197	0x2f672cd2	2.1025251e-10
198	0xb036959f	-6.642384e-10
199	0x304d1cc1	7.461943e-10
200	0x2f2a9644	1.5514795e-10
201	0x3094104d	1.077305e-09
202	0xb06f3ab9	-8.7031143e-10
203	0x305837fd	7.8659906e-10
204	0x30b9d699	1.3521514e-09
205	0x30222e59	5.900112e-10
206	0x302cf3d0	6.2919714e-10
207	0x2f6c07a1	2.1466785e-10
208	0xaf896ad2	-2.4996055e-10
209	0xaf12ca7f	-1.3350564e-10
210	0x2fd2b662	3.8328368e-10
211	0xb000d2cc	-4.686569e-10
212	0x30009507	4.677791e-10
213	0x3006bdc6	4.90186e-10
214	0xb086be85	-9.803932e-10
215	0xb0a03fcd	-1.1659665e-09
216	0xb06eeb6b	-8.6918445e-10
217	0x2fc72f73	3.6231604e-10
218	0xaff56b4d	-4.4641482e-10
219	0x2fe51cb0	4.167524e-10
220	0xb0030409	-4.7663257e-10
221	0xaffd50c2	-4.6077814e-10
222	0xaef633c7	-1.1195982e-10
223	0x307c17ed	9.1711067e-10
224	0xb06e1986	-8.6620167e-10
225	0x30a281e0	1.1823964e-09
226	0x2d1cc70a	8.911769e-12
227	0x30ab6838	1.2471508e-09
228	0xb0543b98	-7.720984e-10
229	0xb0a3d4f8	-1.192034e-09
230	0x2fddc83e	4.0341946e-10
231	0xb0901aa9	-1.0484956e-09
232	0xb037ee18	-6.6913364e-10
233	0x2fd3522e	3.8439069e-10
234	0x301a2e69	5.6090826e-10
235	0xb08e15ea	-1.0338088e-09
236	0x30864eba	9.772159e-10
237	0xafc7c0f5	-3.6334993e-10
238	0x3066a90d	8.391375e-10
239	0xb03ae194	-6.798697e-10
240	0xb0b2f985	-1.3022122e-09
241	0xb029da19	-6.179178e-10
242	0xaf012e66	-1.1748966e-10
243	0xb075943b	-8.934113e-10
244	0xafc0b048	-3.5049852e-10
245	0xaff52001	-4.458798e-10
246	0xaf5aae9c	-1.9889018e-10
247	0x2f475bdf	1.8131584e-10
248	0xaf6c3acf	-2.1484968e-10
249	0xb0851a7f	-9.684554e-10
250	0x30259a61	6.0246036e-10
251	0xb002cbc3	-4.758329e-10
252	0x30097d34	5.0018234e-10
253	0x30a87f55	1.2259799e-09
254	0xb03963cc	-6.744443e-10
255	0x2fa54b0e	3.0066655e-10

sam.image_encoder.temporal_transformer.layers.0.0.fn.to_out.0.weight f4 [12, 128]
0	0xb18f044a	-4.1623354e-09
1	0x33890f96	6.382395e-08
2	0xb2932a2c	-1.713223e-08
3	0xb31c15ce	-3.634141e-08
4	0x3310c5d7	3.3707547e-08
5	0x336aa8e3	5.4635972e-08
6	0xb373f5ce	-5.6801404e-08
7	0xb3da016a	-1.0151673e-07
8	0x331d8412	3.667453e-08
9	0xb22618f9	-9.66815e-09
10	0xb3335d88	-4.176175e-08
11	0xb391c3e5	-6.787722e-08
12	0xafd9e586	-3.9635156e-10
13	0xb2b81a18	-2.1432285e-08
14	0xb3ab7bcd	-7.985327e-08
15	0x322fc53b	1.0231186e-08
16	0x3327425b	3.8943067e-08
17	0xb3e88407	-1.08273575e-07
18	0xb39f6737	-7.422789e-08
19	0xb2f05cf5	-2.798195e-08
20	0xb390c48c	-6.741274e-08
21	0x337fbcab	5.9543407e-08
22	0xb3adc0b6	-8.090994e-08
23	0x32cc9a87	2.3818997e-08
24	0xb31f4220	-3.7080213e-08
25	0xb3302000	-4.1007297e-08
26	0x337eb670	5.930491e-08
27	0x321505e2	8.674279e-09
28	0xb33da2a7	-4.4152923e-08
29	0x30b67425	1.3275253e-09
30	0x34086eb4	1.270626e-07
31	0xb2cb5d08	-2.3674616e-08
32	0x32816334	1.5062689e-08
33	0xb2e7f55f	-2.7003521e-08
34	0xb2073d02	-7.871906e-09
35	0x32e2d909	2.6408559e-08
36	0xb1a7793f	-4.8741238e-09
37	0x33157809	3.4800937e-08
38	0x33adc51c	8.091794e-08
39	0xb211a4b3	-8.477559e-09
40	0xb2a75df6	-1.9484087e-08
41	0xb32bc28a	-3.9990972e-08
42	0x31b81c80	5.358345e-09
43	0x336b03b3	5.4718566e-08
44	0x3167ea53	3.3748122e-09
45	0x3384df0c	6.187301e-08
46	0xb3989955	-7.1059425e-08
47	0x3243f441	1.1406031e-08
48	0xb329236f	-3.9380605e-08
49	0x336a63a4	5.4572993e-08
50	0x338666e0	6.258574e-08
51	0x335f645d	5.2012513e-08
52	0xb3437268	-4.5506027e-08
53	0x3354287b	4.9396913e-08
54	0xb3639a45	-5.2992863e-08
55	0xb3acc1c9	-8.0446235e-08
56	0xb2f912e4	-2.8996006e-08
57	0xb388c918	-6.369572e-08
58	0xb222c36d	-9.474076e-09
59	0xb34f3ace	-4.8249426e-08
60	0xb34783b9	-4.64531e-08
61	0xb103faca	-1.9205566e-09
62	0x33d67994	9.9872665e-08
63	0x32bf8d4c	2.229958e-08
64	0xb27807cb	-1.4437272e-08
65	0xb4035696	-1.2231826e-07
66	0x2eacb59f	7.853917e-11
67	0x3242105f	1.1296009e-08
68	0x33979108	7.0578665e-08
69	0xb2acd452	-2.0119987e-08
70	0xb2bd4b3c	-2.2036708e-08
71	0x323c4802	1.0959413e-08
72	0x3265dcc1	1.3379748e-08
73	0xb30a3ba3	-3.2184868e-08
74	0x33f7fb15	1.1547505e-07
75	0x33758fe8	5.717439e-08
76	0xb293ecf2	-1.7220803e-08
77	0xb3720b1a	-5.6355113e-08
78	0xb21eebbd	-9.250411e-09
79	0x327a9d69	1.4587706e-08
80	0x327b56d6	1.4629867e-08
81	0x33a32876	7.597639e-08
82	0xb34d4377	-4.779164e-08
83	0xb2092ecb	-7.985089e-09
84	0xb33ac25b	-4.3483265e-08
85	0xb2d357f1	-2.4603624e-08
86	0xb147e163	-2.9086429e-09
87	0x318b8770	4.06083e-09
88	0xb279c4e7	-1.4538478e-08
89	0x3394d93d	6.9313025e-08
90	0xb24c1db4	-1.18811165e-08
91	0x32509d05	1.2142896e-08
92	0xb2597c65	-1.26593465e-08
93	0x32a2e895	1.8965048e-08
94	0xb3641f2f	-5.3113748e-08
95	0x3125c480	2.4122357e-09
96	0x329606b6	1.746535e-08
97	0x327e49ed	1.4801555e-08
98	0xb3c9fad9	-9.405421e-08
99	0xb2d3e21a	-2.4666452e-08
100	0xb3988cdd	-7.1036744e-08
101	0x33640f54	5.3099328e-08
102	0xb2e124d8	-2.6210202e-08
103	0xb28a8eaa	-1.613019e-08
104	0x3281d98a	1.5116502e-08
105	0xb33cbe7b	-4.3945402e-08
106	0x3300e2e9	3.0008696e-08
107	0x321121a0	8.447756e-09
108	0xb2c4408b	-2.2846754e-08
109	0x33187481	3.5496218e-08
110	0xb2e80343	-2.7009838e-08
111	0x33c16a96	9.006651e-08
112	0xb1b4996f	-5.256133e-09
113	0xb3214fd8	-3.755835e-08
114	0x325ad803	1.27383855e-08
115	0x32e78a2f	2.6954778e-08
116	0xb34de3a2	-4.7937313e-08
117	0xb2884d8d	-1.586775e-08
118	0xb1d429a9	-6.1747483e-09
119	0x3251aad8	1.22042465e-08
120	0xb24a4b42	-1.1775059e-08
121	0x33126cfb	3.409239e-08
122	0x32c1a4bf	2.2543075e-08
123	0xb34a2d0a	-4.7072753e-08
124	0x32731aee	1.4150585e-08
125	0x3304859d	3.0855166e-08
126	0xb39f5cb1	-7.420875e-08
127	0x32fa8426	2.9163925e-08
128	0xb04afc26	-7.3845496e-10
129	0x327bacb9	1.46493955e-08
130	0xb1adb6fa	-5.0557647e-09
131	0xb21eca77	-9.242846e-09
132	0x321e22e8	9.204747e-09
133	0x3268b4c1	1.3545276e-08
134	0xb2802000	-1.4915713e-08
135	0xb2daed08	-2.548633e-08
136	0x3222697d	9.453626e-09
137	0xb125763c	-2.4077869e-09
138	0xb2282734	-9.787801e-09
139	0xb28cb199	-1.6378907e-08
140	0xafb4549b	-3.2801925e-10
141	0xb19f8452	-4.642552e-09
142	0xb2aeab7b	-2.0334246e-08
143	0x314d4528	2.9870737e-09
144	0x321d21cd	9.146288e-09
145	0xb2e98502	-2.7185255e-08
146	0xb29ba5b9	-1.8119737e-08
147	0xb20699ab	-7.834767e-09
148	0xb2933b2d	-1.7139962e-08
149	0x3275f0aa	1.4315598e-08
150	0xb2a9571b	-1.97138e-08
151	0x31b999d8	5.4016986e-09
152	0xb21738d8	-8.802282e-09
153	0xb2289f68	-9.815132e-09
154	0x327cccc6	1.4714891e-08
155	0x312c134e	2.5040268e-09
156	0xb22e096b	-1.0130274e-08
157	0xafa10418	-2.9288638e-10
158	0x33063c58	3.125419e-08
159	0xb1c59534	-5.750417e-09
160	0x315466d3	3.090851e-09
161	0xb1fa6026	-7.2868884e-09
162	0xb1114a68	-2.1142572e-09
163	0x31dd91e6	6.4485333e-09
164	0xb0ff791f	-1.8588117e-09
165	0x321554c2	8.692213e-09
166	0x32a73aa8	1.9468033e-08
167	0xb10fe219	-2.093776e-09
168	0xb1ad41ca	-5.042442e-09
169	0xb223577d	-9.507741e-09
170	0x30295263	6.159892e-10
171	0x325a9dd5	1.2725157e-08
172	0x30acc711	1.2571225e-09
173	0x32856b66	1.5532077e-08
174	0xb28f9fc5	-1.6720046e-08
175	0x312f5759	2.5515503e-09
176	0xb216b081	-8.7712815e-09
177	0x32685a57	1.3524718e-08
178	0x327b3fb5	1.4624608e-08
179	0x3258d3ca	1.262101e-08
180	0xb24c02ff	-1.1875044e-08
181	0x32540b73	1.2342627e-08
182	0xb2549184	-1.23731105e-08
183	0xb2a5fc88	-1.9323366e-08
184	0xb1ef6195	-6.9669093e-09
185	0xb28746d9	-1.5748286e-08
186	0xb0df616b	-1.6253073e-09
187	0xb2436284	-1.1372894e-08
188	0xb23eda6b	-1.1109118e-08
189	0xb03ec4f6	-6.9401496e-10
190	0x32d21663	2.4457398e-08
191	0x31d17696	6.0961822e-09
192	0xb1476f94	-2.9021736e-09
193	0xb303fc22	-3.0730128e-08
194	0xb071f4c9	-8.802315e-10
195	0x3143b29b	2.847776e-09
196	0x329457d3	1.7269405e-08
197	0xb1bce35b	-5.4973675e-09
198	0xb1895810	-3.9972363e-09
199	0x31763054	3.5825183e-09
200	0x31548b75	3.0929332e-09
201	0xb20d76ba	-8.2342755e-09
202	0x32f272ac	2.8224655e-08
203	0x3274f76c	1.42589265e-08
204	0xb1918f59	-4.236352e-09
205	0xb2745ac4	-1.4223307e-08
206	0xb1104727	-2.0995203e-09
207	0x3180a757	3.7443146e-09
208	0x318d9ca9	4.1214503e-09
209	0x32a07e87	1.868399e-08
210	0xb23ff6e9	-1.1173804e-08
211	0xb0f6569d	-1.7923473e-09
212	0xb236719e	-1.0619628e-08
213	0xb1b55a26	-5.278042e-09
214	0xaf24453c	-1.494031e-10
215	0xaedf8e03	-1.0166092e-10
216	0xb17ebb8f	-3.706848e-09
217	0x328dc84b	1.6505643e-08
218	0xb1389e86	-2.6865634e-09
219	0x3104efa9	1.934476e-09
220	0xb1810ac2	-3.755617e-09
221	0x3182cdd6	3.806899e-09
222	0xb2608bb8	-1.3070284e-08
223	0xaf6a81ee	-2.1328336e-10
224	0x31908bc9	4.2068433e-09
225	0x318ebe88	4.154405e-09
226	0xb2cd540c	-2.3903361e-08
227	0xb1be21e4	-5.5335807e-09
228	0xb298ddae	-1.7795937e-08
229	0x325e9e42	1.2958084e-08
230	0xb1dc0c14	-6.404216e-09
231	0xb18baef7	-4.0653236e-09
232	0x3175cd0a	3.5768744e-09
233	0xb235c705	-1.0580838e-08
234	0x31fb49eb	7.313465e-09
235	0x30bcb49b	1.3730131e-09
236	0xb1af4ba0	-5.101768e-09
237	0x3211176c	8.445436e-09
238	0xb1e29e6d	-6.5954766e-09
239	0x32bcd348	2.198216e-08
240	0xb0f3c5b8	-1.7736772e-09
241	0xb21e5661	-9.216451e-09
242	0x3176fd3e	3.5941663e-09
243	0x31ddd646	6.4563066e-09
244	0xb2465ea9	-1.154664e-08
245	0xb16cd643	-3.4464314e-09
246	0xb0fef991	-1.8551863e-09
247	0x31365e4a	2.6538083e-09
248	0xb152c542	-3.067115e-09
249	0x32130375	8.557312e-09
250	0x31cb9d45	5.925957e-09
251	0xb23c05d4	-1.0944365e-08
252	0x3161bbd4	3.2848577e-09
253	0x31efcc65	6.9790524e-09
254	0xb2a20f8e	-1.8866356e-08
255	0x31e480bd	6.650309e-09

sam.image_encoder.temporal_transformer.layers.0.0.fn.to_out.0.bias f4 [12]
0	0xba1b2dba	-0.00059195946
1	0xbcdf112b	-0.027229866
2	0xbda817f4	-0.08207694
3	0x3da4d205	0.080478705
4	0x3b937fc0	0.004501313
5	0xbc8ba1aa	-0.01704486
6	0x3bad6ef7	0.005292769
7	0x3daf94b5	0.085732855
8	0xbb4c54c1	-0.0031178447
9	0xbcb34db8	-0.021887645
10	0x3bc07a19	0.00587393
11	0x3da248f1	0.07924069

sam.image_encoder.temporal_transformer.layers.0.1.norm.weight f4 [12]
0	0x3e247968	0.16061938
1	0xbddfae90	-0.10921967
2	0xbb372781	-0.002794713
3	0x39d9b9a4	0.00041527778
4	0x3e64c3e5	0.22340353
5	0x3e0d3ce7	0.13792764
6	0x3e5f5787	0.21810733
7	0x3a2f70ea	0.0006692546
8	0x3e15a431	0.14613415
9	0x3df2eaf7	0.11861222
10	0xbe7c0f81	-0.2461529
11	0x3adb57b8	0.0016734516

sam.image_encoder.temporal_transformer.layers.0.1.norm.bias f4 [12]
0	0x3cc36090	0.023849756
1	0xbce97398	-0.028497502
2	0x3b5b98a7	0.0033507736
3	0xba1b5834	-0.0005925924
4	0x3c8a14b0	0.016855568
5	0x3cbed1b1	0.023293348
6	0x3bf1121d	0.0073568956
7	0xba8990dc	-0.0010495442
8	0x3ce35382	0.02774978
9	0x3cdf770a	0.027278442
10	0xbba67c26	-0.0050807176
11	0xbb1d172c	-0.002397011

sam.image_encoder.temporal_transformer.layers.0.1.fn.net.0.weight f4 [48, 12]
0	0x3e708d96	0.23491511
1	0x3df69d5f	0.12041735
2	0xbaf81277	-0.0018926401
3	0x39103c4b	0.00013755371
4	0x3e957684	0.29191983
5	0xbe1d4fc7	-0.15362464
6	0x3cf3107b	0.029670944
7	0x38953bed	7.116036e-05
8	0x3e5ca90b	0.2154886
9	0xbe107baa	-0.14109674
10	0xbd6f390d	-0.058404017
11	0x397fb902	0.00024387616
12	0xbda4422c	-0.08020434
13	0x3d657c73	0.056026887
14	0x3bc2af86	0.005941334
15	0x3935ebdc	0.0001734937
16	0xbdcfd290	-0.101475835
17	0xbda54be8	-0.080711186
18	0x3e4b6e51	0.19866301
19	0xb988a5f2	-0.0002606358
20	0xbdb5142b	-0.08841737
21	0xbd9bd6d4	-0.076093346
22	0xbe706c8e	-0.2347891
23	0x3b0200b2	0.001983684
24	0xbc987884	-0.018612154
25	0x3d9433ee	0.07236467
26	0x39b5c568	0.0003467009
27	0x38b9eb8c	8.8653615e-05
28	0xbcfe5aed	-0.031049216
29	0xbdc9a1de	-0.09845327
30	0x3e4705ef	0.19435857
31	0x396e1270	0.00022704317
32	0xbcfbac88	-0.030721918
33	0xbdbe0d40	-0.09279871
34	0xbe6a5688	-0.22884572
35	0xb9e61ce8	-0.00043890555
36	0xbc6d2227	-0.014473475
37	0x3d966489	0.07343394
38	0x379bb6f7	1.856264e-05
39	0x3930d047	0.00016862257
40	0xbcd657af	-0.026164858
41	0xbdcc071e	-0.09962295
42	0x3e46a39f	0.19398354
43	0x39abc13d	0.00032759635
44	0xbcdc9116	-0.026924651
45	0xbdc0502e	-0.09390293
46	0xbe69f6c6	-0.22848043
47	0xb9e65d49	-0.0004393852
48	0x3e6dd7ed	0.232269
49	0x3df5981f	0.119919054
50	0xbb09dca9	-0.0021036065
51	0x3952bad5	0.00020096761
52	0x3e946bfc	0.28988636
53	0xbe1cf7f1	-0.15328957
54	0x3d0fb45b	0.03508411
55	0x37b34771	2.137173e-05
56	0x3e5933c7	0.21211158
57	0xbe107e40	-0.1411066
58	0xbd850545	-0.06495146
59	0x398eecfa	0.00027260912
60	0xbca63317	-0.020288033
61	0x3d92e4e5	0.071725644
62	0x3a2dba18	0.00066271564
63	0xb97304e9	-0.00023176115
64	0xbd088519	-0.033330057
65	0xbdc838af	-0.097764365
66	0x3e46fdfd	0.19432826
67	0xb8f6fb01	-0.00011776947
68	0xbd037ceb	-0.032101553
69	0xbdbcbca9	-0.092156716
70	0xbe69fbfc	-0.2285003
71	0xba52b4b7	-0.0008037793
72	0xbda47496	-0.080300495
73	0x3d70d5b7	0.058797564
74	0x3c0df5f6	0.008664599
75	0x3b394acd	0.0028273345
76	0xbdd1a983	-0.1023741
77	0xbdac9a40	-0.08427858
78	0x3e4ba584	0.19887358
79	0x3b18702c	0.002326022
80	0xbdb641f7	-0.088993005
81	0xbda3090b	-0.07960709
82	0xbe71b937	-0.2360581
83	0x3bb00d23	0.00537266
84	0x3e6fbd3d	0.23412032
85	0x3df669a1	0.12031866
86	0xbae5c91f	-0.0017531252
87	0x38242ae4	3.9140592e-05
88	0x3e950e06	0.29112262
89	0xbe1d3362	-0.15351632
90	0x3d005f5c	0.03134094
91	0xb86714e3	-5.5094144e-05
92	0x3e5bd1b1	0.2146671
93	0xbe106409	-0.1410066
94	0xbd7725a3	-0.060338628
95	0x38853684	6.3520885e-05
96	0x3e7811b2	0.242255
97	0x3df86b0b	0.12129792
98	0xbb27f3ca	-0.0025627487
99	0x39ce530a	0.0003935325
100	0x3e98fb38	0.29879165
101	0xbe1e1a7e	-0.15439793
102	0x3c769ca7	0.015051997
103	0x3a272b27	0.00063769746
104	0x3e64d968	0.22348559
105	0xbe10f037	-0.14154135
106	0xbd2971e5	-0.041368384
107	0x3a8e7f35	0.0010871651
108	0xbd3fb1ef	-0.04680055
109	0x3d84ee44	0.06490758
110	0x3b2536c7	0.0025209652
111	0xb951bf7b	-0.00020003125
112	0xbd82d862	-0.06388928
113	0xbdb8eaed	-0.090291835
114	0x3e48e5d6	0.19618925
115	0xb992a788	-0.0002797211
116	0xbd6878e2	-0.056755908
117	0xbdae37f0	-0.08506763
118	0xbe6c58cd	-0.2308075
119	0x38f499d1	0.00011663477
120	0x3e728e9c	0.23687214
121	0x3df72e21	0.12069345
122	0xbaf15281	-0.0018411429
123	0x38b267b2	8.507016e-05
124	0x3e96505f	0.29358193
125	0xbe1d827d	-0.15381809
126	0x3cd3da40	0.025860906
127	0x38f5ac4c	0.00011714603
128	0x3e5f0d02	0.21782306
129	0xbe10810c	-0.14111727
130	0xbd5caf88	-0.053878337
131	0x398e6390	0.0002715853
132	0xbd4ff3d1	-0.05076963
133	0x3d830e8c	0.06399259
134	0x3b419346	0.0029537245
135	0xb914e8da	-0.00014201124
136	0xbd8bd114	-0.06826988
137	0xbdb6d98c	-0.089282125
138	0x3e497006	0.1967164
139	0xb95fbd86	-0.0002133754
140	0xbd7797c4	-0.06044747
141	0xbdac5b85	-0.084158935
142	0xbe6d2000	-0.23156738
143	0x39b8306d	0.00035131295
144	0xbbb40c6c	-0.005494645
145	0x3d9b03f2	0.07569112
146	0xba385f8b	-0.000703328
147	0x39a7d375	0.0003201027
148	0xbc7f5534	-0.015584279
149	0xbdd11580	-0.10209179
150	0x3e45afa8	0.19305289
151	0x39fdccbf	0.00048408468
152	0xbc993c13	-0.018705403
153	0xbdc518f7	-0.09623902
154	0xbe68fdcc	-0.22753066
155	0xb9f25768	-0.0004622296
156	0xbc87443d	-0.01651203
157	0x3d95316d	0.07284818
158	0x3966a128	0.00021994545
159	0x37f83c78	2.9592062e-05
160	0xbceab9db	-0.028653076
161	0xbdcab8c8	-0.098985255
162	0x3e46d493	0.19417028
163	0x3932322d	0.00016994095
164	0xbceb74c2	-0.028742198
165	0xbdbf1072	-0.093293086
166	0xbe6a1602	-0.22859958
167	0xba19fb9f	-0.0005873981
168	0xbc89e963	-0.01683492
169	0x3d9520cc	0.07281646
170	0x398fa86c	0.0002740057
171	0x38dded50	0.00010582304
172	0xbcedaf13	-0.029014146
173	0xbdcaa524	-0.09894779
174	0x3e46d855	0.19418462
175	0x3979e48c	0.00023831631
176	0xbcee39e6	-0.029080343
177	0xbdbf0a23	-0.09328105
178	0xbe6a1d1c	-0.22862667
179	0xb9fe9462	-0.0004855721
180	0x3e7a0e47	0.24419509
181	0x3df8dbc8	0.12151295
182	0xbaf045d4	-0.0018331357
183	0xb9cd420b	-0.00039149853
184	0x3e9984d5	0.29984155
185	0xbe1e10cb	-0.15436094
186	0x3c4bdcc9	0.012442776
187	0xb80fa5ed	-3.4248387e-05
188	0x3e67b422	0.22627309
189	0xbe10927c	-0.1411838
190	0xbd1bb584	-0.038014904
191	0x3904eba7	0.00012676288
192	0x3e704732	0.23464659
193	0x3df68bfb	0.12038418
194	0xbada237f	-0.0016642659
195	0xb7c8907c	-2.3909139e-05
196	0x3e9546e9	0.29155663
197	0xbe1d3be2	-0.15354875
198	0x3cf93240	0.030419469
199	0xb8b4b8d6	-8.617497e-05
200	0x3e5c82d3	0.2153428
201	0xbe106030	-0.14099193
202	0xbd72a667	-0.059240725
203	0xb75c05f2	-1.3114406e-05
204	0xbd1cac9d	-0.038250554
205	0x3d897fa9	0.06713802
206	0x3af58059	0.0018730267
207	0xb98392c4	-0.00025095616
208	0xbd5dae57	-0.05412134
209	0xbdbdebc0	-0.09273481
210	0x3e48521b	0.19562571
211	0xb98e311d	-0.00027120943
212	0xbd47c9c5	-0.048776407
213	0xbdb2e418	-0.08734912
214	0xbe6b9274	-0.23005086
215	0xb98d002f	-0.00026893753
216	0xbd26fdd8	-0.040769428
217	0x3d8868d3	0.06660619
218	0x3b0e27b7	0.0021691152
219	0xb9299fcf	-0.0001617663
220	0xbd68d588	-0.056844264
221	0xbdbcbb78	-0.09215444
222	0x3e48d163	0.19611125
223	0xb9255cfe	-0.00015770269
224	0xbd514f3a	-0.051100947
225	0xbdb1d6f7	-0.086835794
226	0xbe6c4c35	-0.23075946
227	0xb8cb7dc0	-9.703217e-05
228	0xbd41be6f	-0.047300752
229	0x3d849f8b	0.06475743
230	0x3b354792	0.0027661067
231	0xb9bed42c	-0.00036397704
232	0xbd847033	-0.06466713
233	0xbdb8884e	-0.09010373
234	0x3e48e952	0.19620255
235	0xb9e7481b	-0.00044113476
236	0xbd6a7769	-0.057242785
237	0xbdade370	-0.08490646
238	0xbe6c351e	-0.23067138
239	0x3746db11	1.1852725e-05
240	0x3e6e590b	0.23276155
241	0x3df57814	0.11985794
242	0xbab1bbc0	-0.0013559982
243	0xba180e44	-0.00058004656
244	0x3e948087	0.2900431
245	0xbe1cb26e	-0.1530244
246	0x3d10e028	0.035370022
247	0xba308d4d	-0.00067349226
248	0x3e5a60d5	0.21326001
249	0xbe1013be	-0.14070031
250	0xbd853115	-0.06503502
251	0xba596037	-0.000829223
252	0xbcbd688b	-0.023121139
253	0x3d91f0ad	0.071259834
254	0x3a3b2b3a	0.0007139925
255	0x38ae5798	8.313282e-05

sam.image_encoder.temporal_transformer.layers.0.1.fn.net.0.bias f4 [48]
0	0xbba81202	-0.0051291
1	0xb938e573	-0.00017633084
2	0xbadcceda	-0.0016846315
3	0xbae7290d	-0.0017636135
4	0xbba3dbee	-0.005000583
5	0xbadc7cfe	-0.0016821919
6	0xb9dbb4aa	-0.0004190554
7	0xbba76016	-0.00510789
8	0xbbac56d5	-0.0052593746
9	0xba935754	-0.0011241236
10	0xbba9e2f0	-0.0051845238
11	0xba83766f	-0.0010029803
12	0xbafd10a4	-0.0019307327
13	0xbae23868	-0.0017259242
14	0xbae1e93c	-0.0017235647
15	0xbbad328c	-0.0052855667
16	0xbba7c7f6	-0.0051202727
17	0xbaac8b07	-0.0013163992
18	0xbaa147da	-0.0012304739
19	0xba9389cd	-0.0011256278
20	0xbba2abed	-0.004964343
21	0xbad05898	-0.0015895544
22	0xbaa24183	-0.0012379143
23	0xbba69fa6	-0.0050849495
24	0xbac1248f	-0.0014735627
25	0xba879960	-0.0010345392
26	0xbaec5363	-0.0018030222
27	0xbacdc3b6	-0.0015698585
28	0xbaa89ef9	-0.001286476
29	0xbba3fb13	-0.0050042956
30	0xba8f982c	-0.0010955385
31	0xbabbe87e	-0.0014336256
32	0xba949eab	-0.0011338791
33	0xbbafa066	-0.005359697
34	0xbba4a404	-0.005024435
35	0xbabd6f0b	-0.0014452649
36	0xbabf310f	-0.0014586764
37	0xba37198c	-0.0006984703
38	0xbadacf42	-0.0016693848
39	0xbb9ebd80	-0.0048443675
40	0xbae39d61	-0.0017365628
41	0xba93a5c4	-0.0011264612
42	0xbafd00e3	-0.0019302632
43	0xbba30ad2	-0.004975655
44	0xbad76721	-0.0016433933
45	0xbacab267	-0.0015464545
46	0xba9a9f75	-0.001179679
47	0xbba42694	-0.0050094817

sam.image_encoder.temporal_transformer.layers.0.1.fn.net.3.weight f4 [12, 48]
0	0xbe0c85c4	-0.13722903
1	0xbd408d6c	-0.04700987
2	0xbda5ee38	-0.08102077
3	0xbdaaa72b	-0.08332666
4	0xbe0d080b	-0.137726
5	0xbda3793d	-0.07982109
6	0xbd4dd16f	-0.05024856
7	0xbe0ca2c3	-0.13733964
8	0xbe0ad6c3	-0.13558488
9	0xbd85c704	-0.065321
10	0xbe0c0cd0	-0.13676763
11	0xbd819235	-0.06326715
12	0xbdb4b2ae	-0.08823143
13	0xbda82dac	-0.08211836
14	0xbda7e266	-0.08197479
15	0xbe09fb59	-0.13474788
16	0xbe0c769f	-0.13717125
17	0xbd8f6539	-0.070017286
18	0xbd8ced47	-0.068811946
19	0xbd84f45c	-0.0649192
20	0xbe0c4909	-0.13699736
21	0xbda10136	-0.07861559
22	0xbd8b554f	-0.06803381
23	0xbe0caf92	-0.1373885
24	0xbd963e99	-0.07336158
25	0xbd8188cc	-0.0632492
26	0xbdac9f1a	-0.08428784
27	0xbd9feed8	-0.07809228
28	0xbd8ecf0b	-0.06973084
29	0xbe0d108c	-0.13775843
30	0xbd86a5a3	-0.065745614
31	0xbd9582af	-0.073003165
32	0xbd859a9b	-0.06523629
33	0xbe0a73f8	-0.13520801
34	0xbe0d02e1	-0.1377063
35	0xbd97c1f7	-0.07410043
36	0xbd994b52	-0.07485069
37	0xbd664edd	-0.056227554
38	0xbda4f237	-0.08054011
39	0xbe0cc5ee	-0.13747379
40	0xbda8bca2	-0.08239104
41	0xbd866e71	-0.06564034
42	0xbdb3e280	-0.08783436
43	0xbe0d084a	-0.13772693
44	0xbda2db05	-0.07951931
45	0xbd9d3071	-0.07675255
46	0xbd889715	-0.066694416
47	0xbe0c0646	-0.13674268
48	0x3d7861f0	0.060640275
49	0xbe0c7b54	-0.13718921
50	0xbe01236a	-0.12611166
51	0xbe006122	-0.12537053
52	0x3d610013	0.05493171
53	0xbe012576	-0.12611946
54	0xbe0c290d	-0.13687535
55	0x3d71bdf0	0.05901903
56	0x3d990cef	0.0747317
57	0xbe060d68	-0.13091052
58	0x3d842946	0.06453185
59	0xbe06f002	-0.13177493
60	0xbdfd4bca	-0.12367971
61	0xbe00b248	-0.12568009
62	0xbe00c67d	-0.12575717
63	0x3d9f412b	0.07776102
64	0x3d75bfc0	0.05999732
65	0xbe0478b4	-0.1293667
66	0xbe052412	-0.13002041
67	0xbe060694	-0.13088447
68	0x3d61a6d9	0.05509076
69	0xbe020869	-0.1269852
70	0xbe05246c	-0.13002175
71	0x3d761abb	0.060084086
72	0xbe030d66	-0.1279808
73	0xbe06aac2	-0.13151076
74	0xbdfffcc2	-0.124993816
75	0xbe0239fb	-0.1271743
76	0xbe049e34	-0.12950975
77	0x3d5f8f15	0.054579813
78	0xbe064ec3	-0.13115983
79	0xbe03733e	-0.1283693
80	0xbe05e2d8	-0.13074815
81	0x3da093c7	0.07840686
82	0x3d63fe81	0.055662636
83	0xbe035334	-0.12824708
84	0xbe033c29	-0.12815918
85	0xbe09247c	-0.13392824
86	0xbe014c82	-0.12626842
87	0x3d49b1e7	0.049241927
88	0xbe00a022	-0.12561086
89	0xbe060476	-0.13087639
90	0xbdfd6a14	-0.123737484
91	0x3d5c3a71	0.05376667
92	0xbe01848c	-0.12648219
93	0xbe02642c	-0.12733525
94	0xbe05a10e	-0.13049719
95	0x3d78bac7	0.060725
96	0xbb6b0bc2	-0.0035865162
97	0x3df4a1f6	0.11944954
98	0x3e004cd4	0.12529308
99	0x3e009660	0.12557364
100	0x38c9030d	9.584995e-05
101	0x3dff7716	0.12473886
102	0x3df5eb3c	0.12007758
103	0xbb265c6d	-0.002538468
104	0xbc51b408	-0.01279927
105	0x3dfaffcb	0.1225582
106	0xbbc7dcb3	-0.0060993074
107	0x3dfadca9	0.12249119
108	0x3e01015e	0.12598178
109	0x3e005e42	0.12535957
110	0x3e006276	0.1253756
111	0xbc716bca	-0.014735172
112	0xbb50945a	-0.0031826706
113	0x3dfc9357	0.1233279
114	0x3dfce0b0	0.12347543
115	0x3dfaa707	0.12238889
116	0xb83cb890	-4.499458e-05
117	0x3e0015a7	0.1250826
118	0x3dfbecad	0.12301002
119	0xbb537493	-0.0032265529
120	0x3dfd2a63	0.123616
121	0x3dfa511f	0.12222504
122	0x3e00a0ca	0.12561336
123	0x3e0007c7	0.12502967
124	0x3dfcd4e7	0.123452954
125	0x39ac4ef5	0.00032865224
126	0x3dfc0f66	0.123076245
127	0x3dfd7ba3	0.123770975
128	0x3dfac3d6	0.12244384
129	0xbc77f567	-0.015134192
130	0xb9c5d155	-0.00037730733
131	0x3dfe6434	0.12421456
132	0x3dfef40a	0.124488905
133	0x3df7e614	0.12104431
134	0x3e0040bf	0.12524699
135	0x3b74dca8	0.0037362967
136	0x3e006932	0.12540129
137	0x3dfb483e	0.122696385
138	0x3e00e12c	0.12585896
139	0x3a5c8d13	0.00084133557
140	0x3e0000d7	0.1250032
141	0x3dff147c	0.12455079
142	0x3dfb8abe	0.12282322
143	0xbb727578	-0.0036996286
144	0x3dc5ced6	0.096585914
145	0x3e05e3c5	0.13075168
146	0x3dff9dac	0.124812454
147	0x3dfef82a	0.12449677
148	0x3dc72455	0.09723727
149	0x3dffeac5	0.124959506
150	0x3e090d37	0.13383947
151	0x3dc651f3	0.09683599
152	0x3dc14df8	0.094386995
153	0x3e021395	0.12702782
154	0x3dc4c60b	0.09608086
155	0x3e02893f	0.12747668
156	0x3dfd8ff6	0.12380974
157	0x3dff4ed3	0.124662064
158	0x3dff666f	0.124707095
159	0x3dc0de57	0.09417408
160	0x3dc617d7	0.09672516
161	0x3e015211	0.12628962
162	0x3e01abe5	0.12663229
163	0x3e02266e	0.12709972
164	0x3dc735c1	0.097270496
165	0x3e0034de	0.12520167
166	0x3e01a01b	0.12658732
167	0x3dc58e66	0.09646301
168	0x3e00dcdc	0.12584251
169	0x3e026fc1	0.12737943
170	0x3dfeb614	0.124370724
171	0x3e0046b9	0.12526979
172	0x3e017d55	0.12645467
173	0x3dc74ec6	0.09731822
174	0x3e021d7f	0.12706564
175	0x3e00de89	0.1258489
176	0x3e021701	0.12704088
177	0x3dc0d521	0.09415651
178	0x3dc6fd3f	0.097162716
179	0x3e00c85a	0.12576428
180	0x3e00a363	0.12562327
181	0x3e03ad69	0.1285912
182	0x3dffca65	0.124897756
183	0x3dc8bf6c	0.09802136
184	0x3dff3d5f	0.124628775
185	0x3e020f84	0.12701231
186	0x3dfdb251	0.12387527
187	0x3dc7873e	0.09742592
188	0x3e000a04	0.1250382
189	0x3e0060a5	0.12536867
190	0x3e01d933	0.12680511
191	0x3dc51ff9	0.09625239
192	0xbe2bcbd6	-0.16776976
193	0xbdf69b3a	-0.12041326
194	0xbe0bd2bf	-0.13654612
195	0xbe0d0044	-0.13769633
196	0xbe2c9d21	-0.16856815
197	0xbe0aff5d	-0.13573976
198	0xbdff2fde	-0.12460302
199	0xbe2c0a30	-0.16800761
200	0xbe296809	-0.16543593
201	0xbe038795	-0.12844689
202	0xbe2b308c	-0.16717738
203	0xbe02c871	-0.12771775
204	0xbe0f7966	-0.14011154
205	0xbe0c59e7	-0.1370617
206	0xbe0c4f4d	-0.13702126
207	0xbe28f5eb	-0.1650006
208	0xbe2be38f	-0.16786025
209	0xbe05e69d	-0.13076253
210	0xbe05978a	-0.13046089
211	0xbe0362c9	-0.12830652
212	0xbe2c8cc6	-0.16850576
213	0xbe0aa8a4	-0.13540894
214	0xbe04e22a	-0.129769
215	0xbe2bcd32	-0.16777495
216	0xbe07a5be	-0.1324682
217	0xbe02a388	-0.12757695
218	0xbe0d7512	-0.1381419
219	0xbe0a618c	-0.13513774
220	0xbe0602aa	-0.13086954
221	0xbe2cb050	-0.16864133
222	0xbe0404f0	-0.12892509
223	0xbe076bcf	-0.1322472
224	0xbe039546	-0.12849912
225	0xbe28f001	-0.16497804
226	0xbe2c837f	-0.16847037
227	0xbe082a7f	-0.13297461
228	0xbe089a80	-0.13340187
229	0xbdfe55f2	-0.124187365
230	0xbe0b9a27	-0.13633023
231	0xbe2d7468	-0.16938937
232	0xbe0c7fc9	-0.13720621
233	0xbe03c5b4	-0.12868387
234	0xbe0f3ee7	-0.13988839
235	0xbe2cceaf	-0.16875719
236	0xbe0b06fe	-0.13576886
237	0xbe098095	-0.13427956
238	0xbe043948	-0.12912476
239	0xbe2b9244	-0.16755015
240	0xbd001a68	-0.031275183
241	0xbbe819ad	-0.007083139
242	0xbc485bbc	-0.012228902
243	0xbc4dcdd2	-0.012561278
244	0xbcfc48ac	-0.030796371
245	0xbc44cee9	-0.012012222
246	0xbbdfbe90	-0.0068281367
247	0xbcff95ac	-0.031199299
248	0xbd01f600	-0.031728745
249	0xbc23803f	-0.009979307
250	0xbd00f296	-0.031481348
251	0xbc1de7b3	-0.009637761
252	0xbc59a58d	-0.013284099
253	0xbc4afd4c	-0.012389492
254	0xbc4a4b6c	-0.012347084
255	0xbd028699	-0.031866644

sam.image_encoder.temporal_transformer.layers.0.1.fn.net.3.bias f4 [12]
0	0x3af6ed60	0.0018839054
1	0xbc1de8e2	-0.009638043
2	0x3d1a7d97	0.037717428
3	0xbd2054ee	-0.039143495
4	0x3aef7c77	0.0018271346
5	0xbc84467f	-0.016146896
6	0xbc3d3048	-0.011547156
7	0xbd1ef13e	-0.038804285
8	0xbbeac295	-0.0071643093
9	0x3b1dabd6	0.002405872
10	0x3cacf60f	0.021113424
11	0xbd12a19c	-0.035798654

sam.image_encoder.temporal_transformer.layers.1.0.norm.weight f4 [12]
0	0x318ac645	4.0388692e-09
1	0x31920614	4.2498502e-09
2	0x319ed8cc	4.623052e-09
3	0x316c73f7	3.4408438e-09
4	0x31aed2a2	5.0880127e-09
5	0x3176735b	3.5863283e-09
6	0x31a23434	4.7207553e-09
7	0x317ca67e	3.6765466e-09
8	0x318e0e90	4.1343995e-09
9	0x3181677d	3.7661594e-09
10	0x3182f55f	3.8113934e-09
11	0x318d49d7	4.1120347e-09

sam.image_encoder.temporal_transformer.layers.1.0.norm.bias f4 [12]
0	0x2f164343	1.3666317e-10
1	0xaecb211e	-9.237254e-11
2	0x2e8fd8f1	6.5414237e-11
3	0xae1e5aa8	-3.600556e-11
4	0xae150f3f	-3.389222e-11
5	0xaf356ee9	-1.6501257e-10
6	0x2f1814e6	1.3831744e-10
7	0x2e194c13	3.485574e-11
8	0x2f695472	2.1221228e-10
9	0xaf7a5b9d	-2.2769915e-10
10	0x2f861f10	2.439653e-10
11	0x2dcc391a	2.3217473e-11

sam.image_encoder.temporal_transformer.layers.1.0.fn.to_qkv.weight f4 [384, 12]
0	0x3019b0cc	5.591232e-10
1	0x30495b9f	7.3253575e-10
2	0x2f9925c5	2.7857375e-10
3	0xb02ab050	-6.2096195e-10
4	0xb0451453	-7.1697065e-10
5	0xafa6d7bd	-3.0348515e-10
6	0xaf8cdad7	-2.5621347e-10
7	0x304c1053	7.4237966e-10
8	0x309ac969	1.1262219e-09
9	0xaf973d99	-2.7510508e-10
10	0xb013d50a	-5.3781035e-10
11	0x30342b5e	6.5545247e-10
12	0x2fe6220e	4.1860954e-10
13	0xb00640ec	-4.8841176e-10
14	0xb086db2d	-9.812077e-10
15	0x30291afb	6.1520183e-10
16	0xaff0674e	-4.3729148e-10
17	0x307830e5	9.029136e-10
18	0xafcce845	-3.727242e-10
19	0x307949a1	9.0690305e-10
20	0x2fdb0e3f	3.984599e-10
21	0xadcc25d5	-2.3208916e-11
22	0x2e6de6b5	5.409247e-11
23	0x30786ac0	9.0373575e-10
24	0x3058dd60	7.8894935e-10
25	0x30bc0652	1.3680597e-09
26	0xb0123b68	-5.319891e-10
27	0x2fb99f87	3.3764655e-10
28	0x300a4dc5	5.0314625e-10
29	0x2fa53910	3.005387e-10
30	0x2e8fa276	6.531746e-11
31	0xafd35dd8	-3.8447356e-10
32	0xb005cf3e	-4.8679627e-10
33	0xb013e07d	-5.3797305e-10
34	0xafd69b08	-3.903653e-10
35	0x2fab337c	3.11413e-10
36	0xaf96c7d4	-2.7426827e-10
37	0xb067d788	-8.43436e-10
38	0xb04d2427	-7.462994e-10
39	0x2ed731a8	9.785889e-11
40	0x301a0910	5.603775e-10
41	0x2f87d95f	2.4710808e-10
42	0xafb0e990	-3.218017e-10
43	0xb0758a67	-8.932716e-10
44	0x30ba30ea	1.3547183e-09
45	0xaf51a48c	-1.9066898e-10
46	0x30b4d901	1.31584e-09
47	0x30e9d7ff	1.7014371e-09
48	0xae3caa2d	-4.2897397e-11
49	0x30888ead	9.935853e-10
50	0x3012d246	5.3413307e-10
51	0x2f6c49f7	2.1490353e-10
52	0x303e06bd	6.9131173e-10
53	0x308e8e8b	1.0372373e-09
54	0xaf93a9b1	-2.6859717e-10
55	0x2f68c3f3	2.1169892e-10
56	0x2ff8d48f	4.526197e-10
57	0x3059258e	7.899751e-10
58	0xaf036319	-1.1949587e-10
59	0xb062576b	-8.234255e-10
60	0x30811f1a	9.394825e-10
61	0x30883e50	9.913013e-10
62	0x30610bf1	8.1871493e-10
63	0xaf191bae	-1.3925103e-10
64	0xafcd640d	-3.7360373e-10
65	0xb0724184	-8.813219e-10
66	0xafd82e90	-3.9323256e-10
67	0xae72e3f4	-5.5226893e-11
68	0xaf44ccac	-1.789881e-10
69	0x2fa76514	3.0448943e-10
70	0xb034e064	-6.5802497e-10
71	0xb08d06fa	-1.0261083e-09
72	0xb0825d7a	-9.485313e-10
73	0x2f027d31	1.1867908e-10
74	0xb057b94e	-7.847988e-10
75	0xb062ad5b	-8.2464674e-10
76	0xb077972d	-9.007291e-10
77	0xae75e998	-5.5914023e-11
78	0xb034e310	-6.5806294e-10
79	0x3012edb4	5.3452287e-10
80	0xb0187867	-5.546838e-10
81	0xb0acb320	-1.2565557e-09
82	0x3064b465	8.3202273e-10
83	0x2ff608cb	4.4753387e-10
84	0x2e99a3de	6.986743e-11
85	0x30097ac7	5.0014787e-10
86	0xb0515c95	-7.6165324e-10
87	0x309412e2	1.0773784e-09
88	0x30950cdb	1.0844831e-09
89	0x306ecdde	8.687645e-10
90	0xb08b3052	-1.0127315e-09
91	0xafc96fe9	-3.6641204e-10
92	0xaf4b9c3d	-1.851825e-10
93	0xb03b8f7e	-6.823412e-10
94	0xb0475869	-7.2521417e-10
95	0xaff1d7d6	-4.3991005e-10
96	0x30279559	6.096648e-10
97	0x3093e84f	1.0761684e-09
98	0xafd01224	-3.784787e-10
99	0xaf81e10e	-2.3624874e-10
100	0x305bbca9	7.993984e-10
101	0x30601de3	8.1533197e-10
102	0xb04bb98d	-7.4114653e-10
103	0x2fe54ec8	4.1710835e-10
104	0xaee3e330	-1.03631215e-10
105	0xb021da95	-5.888208e-10
106	0xb00b1c69	-5.060828e-10
107	0xb083654e	-9.560297e-10
108	0xb0c0bc9d	-1.4023446e-09
109	0xb0d8cc9c	-1.5774222e-09
110	0x309c7df7	1.1386295e-09
111	0x2e7be930	5.7277905e-11
112	0xb099e902	-1.119844e-09
113	0xb0046f5d	-4.8179577e-10
114	0x2fc53f2e	3.5878983e-10
115	0xb0642f71	-8.3013335e-10
116	0x305e789f	8.093454e-10
117	0xb08863c0	-9.923653e-10
118	0xb011a0ee	-5.297939e-10
119	0x306ac6e8	8.5411367e-10
120	0xb0ac3037	-1.2528351e-09
121	0x2e3ab030	4.244799e-11
122	0xb01429de	-5.3901583e-10
123	0x2e2c44ac	3.9169265e-11
124	0x30013045	4.699852e-10
125	0xb01417f3	-5.387612e-10
126	0x309dedc9	1.1490836e-09
127	0xafdab2b9	-3.978096e-10
128	0x306c7baa	8.6032037e-10
129	0xaf848ef9	-2.4112248e-10
130	0x2f31401c	1.6120832e-10
131	0x30c84bcc	1.4573458e-09
132	0xb087efff	-9.890754e-10
133	0x30ac8342	1.2551953e-09
134	0xb0874b2b	-9.843907e-10
135	0xb012edf9	-5.345267e-10
136	0xafd798d5	-3.9216866e-10
137	0x2ee918c3	1.0600012e-10
138	0x2f29a16a	1.5427806e-10
139	0x303819ca	6.697546e-10
140	0xb085e8d0	-9.743193e-10
141	0xafe69c35	-4.1947748e-10
142	0x300486dd	4.821297e-10
143	0xb060d6bc	-8.179588e-10
144	0xafd23415	-3.8235784e-10
145	0xafe4b3d6	-4.160074e-10
146	0x309ea5c1	1.1543123e-09
147	0x2fb9a31b	3.3767197e-10
148	0xafc63188	-3.6051184e-10
149	0xb08a6132	-1.0068446e-09
150	0xb0578b57	-7.841456e-10
151	0xb01980ff	-5.584439e-10
152	0x30bda238	1.3797665e-09
153	0xb00c5929	-5.105841e-10
154	0x301043f2	5.248345e-10
155	0xafa12472	-2.9311625e-10
156	0x30911f89	1.0559101e-09
157	0x3013a2fd	5.370991e-10
158	0xb0617ef8	-8.2034957e-10
159	0xafdd1b6e	-4.0219156e-10
160	0xb01c0fdf	-5.6775024e-10
161	0x30046e44	4.8178017e-10
162	0x303839a5	6.702073e-10
163	0xb0154a58	-5.4311533e-10
164	0xaf930954	-2.6745772e-10
165	0x2fe9938e	4.2487297e-10
166	0xb035917d	-6.605417e-10
167	0xb0afd4f0	-1.2793446e-09
168	0x309dc6fb	1.1479807e-09
169	0x30870d6c	9.826358e-10
170	0x309d4710	1.1443451e-09
171	0x30a355cd	1.1884197e-09
172	0xb05e3247	-8.083458e-10
173	0xb09449ff	-1.0789448e-09
174	0xaeac585d	-7.837351e-11
175	0xafc74e02	-3.6253317e-10
176	0xb0175b31	-5.506307e-10
177	0x2fb70c1d	3.3296113e-10
178	0x3060c770	8.1774143e-10
179	0xb08c53e2	-1.0210182e-09
180	0xaf31dea2	-1.6177151e-10
181	0x304581d1	7.185266e-10
182	0xb04c0a03	-7.4228995e-10
183	0x30191e1f	5.570388e-10
184	0xb09f4ec1	-1.1591156e-09
185	0xb039b768	-6.7563244e-10
186	0xb05ca426	-8.02688e-10
187	0xb07fbb7d	-9.3034896e-10
188	0xaf3ae945	-1.6999475e-10
189	0x305fd0b2	8.14235e-10
190	0x3095d0c0	1.0900507e-09
191	0xafa87af4	-3.0646385e-10
192	0xaf754e34	-2.2310404e-10
193	0x2f13a568	1.3428336e-10
194	0xb0662d51	-8.373791e-10
195	0xaf27504f	-1.5217093e-10
196	0x3001a1b2	4.715971e-10
197	0x2db9b067	2.1110403e-11
198	0xb03e3277	-6.919331e-10
199	0x3027311d	6.082404e-10
200	0xb0d3c6fb	-1.5408824e-09
201	0xae99eeef	-7.0000776e-11
202	0xb0a36026	-1.1887138e-09
203	0x308b31e5	1.0127762e-09
204	0x2f9216e6	2.6573516e-10
205	0x309e6f0b	1.1527573e-09
206	0x2f3fe335	1.7452069e-10
207	0xaeecf484	-1.0775472e-10
208	0xb0580f21	-7.860184e-10
209	0xb03cce32	-6.868702e-10
210	0xb0180f3e	-5.531894e-10
211	0x30560fd3	7.7875234e-10
212	0xb05e178a	-8.079658e-10
213	0xaedc84f4	-1.0028059e-10
214	0xb07d6ff4	-9.219996e-10
215	0x2e81946b	5.892605e-11
216	0xaeadad24	-7.897885e-11
217	0xae731219	-5.5267877e-11
218	0xb093865f	-1.0733848e-09
219	0xad93be4b	-1.6796472e-11
220	0x2f894ab6	2.497324e-10
221	0x309732fc	1.1001187e-09
222	0x301f9f89	5.8070576e-10
223	0x2f9559f6	2.7166863e-10
224	0x2eb550a4	8.245252e-11
225	0x2f21d26d	1.4717623e-10
226	0xaf94d6ea	-2.707375e-10
227	0x30ca0181	1.4697862e-09
228	0xb06fbd85	-8.7217017e-10
229	0x306527b6	8.336615e-10
230	0xaf7c52b0	-2.2948643e-10
231	0x2fa68e77	3.0296451e-10
232	0x2f115737	1.3218658e-10
233	0xb0199625	-5.5874444e-10
234	0xb081ee21	-9.453666e-10
235	0x2f21b164	1.4705887e-10
236	0xaf5414d5	-1.9288689e-10
237	0x2f6b57bb	2.1404294e-10
238	0xafb64d67	-3.3160605e-10
239	0xb026b606	-6.064912e-10
240	0xb08a2db0	-1.0053807e-09
241	0xb092653b	-1.065167e-09
242	0xb00e4863	-5.1762167e-10
243	0xaec51e08	-8.9638574e-11
244	0xaff55897	-4.4628187e-10
245	0x308b9886	1.0156931e-09
246	0xadae72b3	-1.9832446e-11
247	0xb031d384	-6.4692807e-10
248	0xafa03185	-2.9139016e-10
249	0xb0048815	-4.8214704e-10
250	0xafcefeb7	-3.7652167e-10
251	0x30d623a2	1.5580677e-09
252	0x2fe7b91c	4.2150183e-10
253	0x303fa653	6.9721756e-10
254	0xb00adf79	-5.052168e-10
255	0xae9881b6	-6.935201e-11

sam.image_encoder.temporal_transformer.layers.1.0.fn.to_out.0.weight f4 [12, 128]
0	0xae67a06f	-5.2665813e-11
1	0xafcfddeb	-3.7810763e-10
2	0xafa5c1c2	-3.0150998e-10
3	0x2e8122e8	5.8724414e-11
4	0xaf24609c	-1.4950036e-10
5	0xae96ecff	-6.863309e-11
6	0xaf705a87	-2.1860035e-10
7	0x2e2a3d1a	3.8707794e-11
8	0x2f949ee9	2.7033956e-10
9	0x2f256b63	1.5044814e-10
10	0xaec4945a	-8.9394006e-11
11	0x30191637	5.5692645e-10
12	0x2e7c7640	5.7403193e-11
13	0x2fc0f8c6	3.510136e-10
14	0xafb54de8	-3.2979064e-10
15	0x2e5f9bc9	5.0842695e-11
16	0x2ed45449	9.655616e-11
17	0xafc5729a	-3.591552e-10
18	0xaf866094	-2.444308e-10
19	0xaec71914	-9.053927e-11
20	0x2f4ac491	1.8441627e-10
21	0xade81dc0	-2.6388558e-11
22	0x2f551a84	1.9381657e-10
23	0xaf538b37	-1.9239797e-10
24	0x2f69c588	2.1261404e-10
25	0x2ee5a087	1.044223e-10
26	0xae6fa2ba	-5.448684e-11
27	0x2f9044c4	2.6242308e-10
28	0x2f1f3afc	1.4481921e-10
29	0xaf09715f	-1.2500355e-10
30	0xaff74ae9	-4.4982265e-10
31	0x2f0a1be1	1.2560931e-10
32	0x2f862e74	2.4407465e-10
33	0xae9937cf	-6.967548e-11
34	0x2f3dff2a	1.7280102e-10
35	0xaef9cbe4	-1.1359427e-10
36	0xafa460fc	-2.9900338e-10
37	0x2f93418b	2.6785715e-10
38	0xaf0ba714	-1.2701334e-10
39	0x2f2db00b	1.5796801e-10
40	0xaf494a28	-1.8307189e-10
41	0x2f457cb9	1.7961356e-10
42	0x2eaa0d74	7.733095e-11
43	0x2ea3e975	7.453852e-11
44	0x2f35f2ad	1.654807e-10
45	0x2d722df0	1.37663075e-11
46	0xaf55dfbd	-1.9451725e-10
47	0xaf8fd61c	-2.6163682e-10
48	0xaf498dd2	-1.8331228e-10
49	0xaf5d84fd	-2.014708e-10
50	0xaf6142e3	-2.0487394e-10
51	0xaf3765ea	-1.667996e-10
52	0x2f8bd68d	2.54364e-10
53	0x2f6168be	2.0500843e-10
54	0xaee084a1	-1.02099e-10
55	0xaea0ec81	-7.317969e-11
56	0xae2f4ad2	-3.9856847e-11
57	0xafc325a6	-3.5497044e-10
58	0x2f2353a6	1.4854482e-10
59	0xaf73ade6	-2.2162502e-10
60	0xaf241a6f	-1.4925104e-10
61	0xaf6f927a	-2.1788962e-10
62	0x2fa5800a	3.0104302e-10
63	0xaf8abbcf	-2.52355e-10
64	0x2fdaaabf	3.9775291e-10
65	0x2fc608b0	3.6022163e-10
66	0xaf68aef1	-2.1162429e-10
67	0xaf22cffb	-1.4807704e-10
68	0x2eb402a0	8.1859186e-11
69	0xafc773bc	-3.6280123e-10
70	0xaf45a6c6	-1.7976295e-10
71	0x2f12a463	1.3337025e-10
72	0xaf586f05	-1.9684528e-10
73	0xae48ea70	-4.5682957e-11
74	0xaf30cffa	-1.6080995e-10
75	0xaf90212b	-2.6217015e-10
76	0xaf3923d9	-1.6838388e-10
77	0x2fb09224	3.2118053e-10
78	0x2e9c79f8	7.115725e-11
79	0xaef0964e	-1.0940636e-10
80	0xaeb2132e	-8.09791e-11
81	0xafbc01f0	-3.4198377e-10
82	0x2f92318a	2.6592445e-10
83	0x2f2b0c0d	1.5556641e-10
84	0x2db17616	2.0175011e-11
85	0x2c6ebcf8	3.3926733e-12
86	0x2ee61df4	1.046451e-10
87	0xafce73e7	-3.7553535e-10
88	0xafa971b4	-3.0821712e-10
89	0x2e4fa2c4	4.7210916e-11
90	0xad2f851c	-9.9771545e-12
91	0xae8c5878	-6.382178e-11
92	0x2c140df5	2.1039813e-12
93	0x2f330e97	1.6285139e-10
94	0x2e80aa9c	5.8510724e-11
95	0x2f6cc405	2.1533715e-10
96	0xafb17b2b	-3.2283629e-10
97	0x2eee0fa8	1.0825768e-10
98	0x2e4bb22b	4.63151e-11
99	0x2ea2614c	7.3841905e-11
100	0xaf8a7089	-2.5182015e-10
101	0x2db21479	2.0245349e-11
102	0xaf42dbca	-1.7722282e-10
103	0x2efd9cb5	1.1532945e-10
104	0xaf94f4a1	-2.7094862e-10
105	0x2f90ca66	2.633726e-10
106	0x2e7c817f	5.7413182e-11
107	0x2dff09a5	2.8994427e-11
108	0x2db070bc	2.0058948e-11
109	0x2ff4f732	4.4558984e-10
110	0x2fb97d36	3.3740272e-10
111	0x2fac8e10	3.138756e-10
112	0x2e913d6c	6.604747e-11
113	0xaf8ae2bc	-2.5263158e-10
114	0xaeb5ab52	-8.2613597e-11
115	0x2ef73b48	1.124279e-10
116	0x2fcdda99	3.7444606e-10
117	0xaeea6a4c	-1.065997e-10
118	0xaf97dab3	-2.7622135e-10
119	0x2f7868ca	2.2592697e-10
120	0x2f12bb58	1.334518e-10
121	0x2ec15cda	8.7931176e-11
122	0xaf9dfb33	-2.8736621e-10
123	0x2fd5b1e6	3.887088e-10
124	0x2f6a9b76	2.1337407e-10
125	0x2e20ef96	3.6592583e-11
126	0xae3dbd78	-4.3141907e-11
127	0xaf8626a9	-2.4401928e-10
128	0xaed27033	-9.569625e-11
129	0xb03d9d80	-6.898162e-10
130	0xaf90a521	-2.6310779e-10
131	0xaee0d40d	-1.02240084e-10
132	0xb061b8f4	-8.211736e-10
133	0x2ebcff98	8.594653e-11
134	0x2fa46a0c	2.9906777e-10
135	0xb009da80	-5.0150817e-10
136	0xaf0a068a	-1.255335e-10
137	0xaf383697	-1.6754097e-10
138	0xb067bbdf	-8.430429e-10
139	0x30005db4	4.669929e-10
140	0xaf36adbc	-1.6614526e-10
141	0x2f67b815	2.1074727e-10
142	0xaff59c53	-4.4676315e-10
143	0x2f1d7301	1.4319924e-10
144	0x2f670b8e	2.1013433e-10
145	0x2facb347	3.1414002e-10
146	0xaf3e4a17	-1.7306721e-10
147	0x2eb054c5	8.0186115e-11
148	0x2f9f07c8	2.892746e-10
149	0xaf648529	-2.0783787e-10
150	0x302f81f9	6.384933e-10
151	0x300811f1	4.950201e-10
152	0x30675a71	8.4165835e-10
153	0xaeed331a	-1.078659e-10
154	0xaf9fff42	-2.9103303e-10
155	0x2fdcad69	4.0140982e-10
156	0xb0452061	-7.1714196e-10
157	0x2f8e0bc8	2.583802e-10
158	0xaf1d9ce7	-1.433481e-10
159	0x3033e874	6.5450156e-10
160	0x2ee51dca	1.0419006e-10
161	0xafb9bc41	-3.3785066e-10
162	0x2f826c3d	2.372377e-10
163	0xaf6d4314	-2.1578855e-10
164	0x2ead5113	7.881531e-11
165	0x301fd200	5.814229e-10
166	0xab39b26b	-6.597281e-13
167	0xae810b23	-5.868219e-11
168	0x2fb679c0	3.3192116e-10
169	0xafab02e2	-3.1106767e-10
170	0x30659136	8.351607e-10
171	0xae2fc601	-3.9966256e-11
172	0xb04dd0c0	-7.4875217e-10
173	0xafae7c58	-3.1738767e-10
174	0x2e56f60c	4.88765e-11
175	0xaf692686	-2.1204913e-10
176	0xaeaedbd2	-7.951652e-11
177	0xaea7fbbf	-7.639e-11
178	0x2fbee861	3.4725914e-10
179	0x2f404836	1.7487953e-10
180	0xafacf005	-3.1457162e-10
181	0xaf6a73c6	-2.1323307e-10
182	0x2fa23ee6	2.951232e-10
183	0xb041b015	-7.046322e-10
184	0x2fac4d92	3.1341735e-10
185	0xaff5ced7	-4.471221e-10
186	0xaf2e93f0	-1.5877766e-10
187	0xafaa74f5	-3.1005923e-10
188	0x2ea771a5	7.614468e-11
189	0xaf5570ee	-1.9412358e-10
190	0xaecfffe9	-9.458729e-11
191	0x2f729a20	2.2064528e-10
192	0x2f49b3a2	1.8344662e-10
193	0x2fbbfbad	3.4193928e-10
194	0xb060e78d	-8.181978e-10
195	0xb0104f4f	-5.24996e-10
196	0x2f86fb11	2.4552851e-10
197	0xae3bd22e	-4.2705554e-11
198	0xaf589eee	-1.9701549e-10
199	0xaf1712c8	-1.3740042e-10
200	0xb02f3bd5	-6.3749656e-10
201	0x2f8be405	2.544597e-10
202	0x2f647cee	2.0780863e-10
203	0xae92f5f8	-6.683004e-11
204	0x2f5f362b	2.0300976e-10
205	0x2e9d9a7a	7.166974e-11
206	0x2ec4fa7e	8.9575444e-11
207	0x2fd175d8	3.8100612e-10
208	0x2f48599e	1.8221732e-10
209	0xafa5b71a	-3.0143427e-10
210	0xaf8258d4	-2.3709978e-10
211	0x2fc0e97b	3.5090494e-10
212	0x302cc5b3	6.2854183e-10
213	0xad360739	-1.0347106e-11
214	0xaea79852	-7.621338e-11
215	0xb02a594f	-6.1972555e-10
216	0x2fb0f341	3.2187056e-10
217	0xafedc840	-4.3252335e-10
218	0x2f9d300c	2.8592273e-10
219	0x2ec9ce4a	9.177066e-11
220	0xb01314bd	-5.350776e-10
221	0xae83c750	-5.992595e-11
222	0xb06cc26e	-8.61326e-10
223	0x2ee8dcd6	1.0589367e-10
224	0xaf9b0141	-2.8195227e-10
225	0x2ee01190	1.01894604e-10
226	0xaf2f2d6f	-1.5932299e-10
227	0xaf23cb4c	-1.4896989e-10
228	0xafd05533	-3.7895517e-10
229	0x2f2d8d91	1.5784553e-10
230	0x2f97f0e8	2.7637914e-10
231	0x2fa6588b	3.0258138e-10
232	0xb01c284e	-5.6809746e-10
233	0x2e0ef602	3.250556e-11
234	0xafc23fbc	-3.533368e-10
235	0x2efbc7aa	1.1449626e-10
236	0xafec07db	-4.2933732e-10
237	0xaf73d66b	-2.2176898e-10
238	0x2fce92fb	3.7575618e-10
239	0x2ff07115	4.3736095e-10
240	0x2dae9d62	1.9851402e-11
241	0xb00d99ec	-5.151424e-10
242	0xafd5c65b	-3.8885414e-10
243	0xafbdf82a	-3.455523e-10
244	0x2f0d69bb	1.2861438e-10
245	0x2efe2ab1	1.1558166e-10
246	0xae852bf6	-6.055949e-11
247	0xaee2f106	-1.03201045e-10
248	0xad45b303	-1.1237902e-11
249	0x30213473	5.8645994e-10
250	0xaed76ee4	-9.796766e-11
251	0x2e39acab	4.221749e-11
252	0x2dc16fc1	2.1991188e-11
253	0xb008a808	-4.97153e-10
254	0xaf86bab6	-2.4507124e-10
255	0x2e8e7d57	6.479677e-11

sam.image_encoder.temporal_transformer.layers.1.0.fn.to_out.0.bias f4 [12]
0	0x3af6ece5	0.0018838911
1	0xbc1de9b5	-0.00963824
2	0x3d1a7d97	0.037717428
3	0xbd2054fa	-0.03914354
4	0x3aef77b5	0.0018269928
5	0xbc8446b0	-0.016146988
6	0xbc3d304c	-0.011547159
7	0xbd1ef148	-0.038804322
8	0xbbeac3b0	-0.007164441
9	0x3b1daba8	0.0024058614
10	0x3cacf60f	0.021113424
11	0xbd12a19d	-0.035798658

sam.image_encoder.temporal_transformer.layers.1.1.norm.weight f4 [12]
0	0xbb1b95c9	-0.0023740402
1	0xbe02af4a	-0.1276218
2	0x388ceaad	6.719432e-05
3	0x3d6d5299	0.0579401
4	0xbd589a91	-0.05288178
5	0xbde21c68	-0.11040574
6	0x3aacabae	0.0013173723
7	0xbb2d20c1	-0.0026417228
8	0x385879f6	5.1611998e-05
9	0xbddb9d00	-0.10723305
10	0x3ddc605a	0.10760565
11	0x3a472731	0.00075970875

sam.image_encoder.temporal_transformer.layers.1.1.norm.bias f4 [12]
0	0x39b35d7a	0.00034211186
1	0xbd07c4af	-0.033146556
2	0x38681d2b	5.5340275e-05
3	0xbcc32e27	-0.023825718
4	0x3b54b6d0	0.0032457598
5	0xbd1ddf34	-0.03854294
6	0xbab52fc5	-0.001382344
7	0xba18ee57	-0.0005833855
8	0x38906947	6.8860645e-05
9	0xbc9a7e69	-0.018859105
10	0xbd263509	-0.040577922
11	0x3a1f7c3e	0.0006083882
